BertForSequenceClassification(
  (bert): BertModel(
    (embeddings): BertEmbeddings(
      (word_embeddings): Embedding(21128, 1024, padding_idx=1)
      (position_embeddings): Embedding(512, 1024)
      (token_type_embeddings): Embedding(2, 1024)
      (LayerNorm): LayerNorm((1024,), eps=1e-12, elementwise_affine=True)
      (dropout): Dropout(p=0.1, inplace=False)
    )
    (encoder): BertEncoder(
      (layer): ModuleList(
        (0): BertLayer(
          (attention): BertAttention(
            (self): BertSelfAttention(
              (query): Linear(in_features=1024, out_features=1024, bias=True)
              (key): Linear(in_features=1024, out_features=1024, bias=True)
              (value): Linear(in_features=1024, out_features=1024, bias=True)
              (dropout): Dropout(p=0.1, inplace=False)
            )
            (output): BertSelfOutput(
              (dense): Linear(in_features=1024, out_features=1024, bias=True)
              (LayerNorm): LayerNorm((1024,), eps=1e-12, elementwise_affine=True)
              (dropout): Dropout(p=0.1, inplace=False)
            )
          )
          (intermediate): BertIntermediate(
            (dense): Linear(in_features=1024, out_features=4096, bias=True)
            (intermediate_act_fn): GELUActivation()
          )
          (output): BertOutput(
            (dense): Linear(in_features=4096, out_features=1024, bias=True)
            (LayerNorm): LayerNorm((1024,), eps=1e-12, elementwise_affine=True)
            (dropout): Dropout(p=0.1, inplace=False)
          )
        )
        (1): BertLayer(
          (attention): BertAttention(
            (self): BertSelfAttention(
              (query): Linear(in_features=1024, out_features=1024, bias=True)
              (key): Linear(in_features=1024, out_features=1024, bias=True)
              (value): Linear(in_features=1024, out_features=1024, bias=True)
              (dropout): Dropout(p=0.1, inplace=False)
            )
            (output): BertSelfOutput(
              (dense): Linear(in_features=1024, out_features=1024, bias=True)
              (LayerNorm): LayerNorm((1024,), eps=1e-12, elementwise_affine=True)
              (dropout): Dropout(p=0.1, inplace=False)
            )
          )
          (intermediate): BertIntermediate(
            (dense): Linear(in_features=1024, out_features=4096, bias=True)
            (intermediate_act_fn): GELUActivation()
          )
          (output): BertOutput(
            (dense): Linear(in_features=4096, out_features=1024, bias=True)
            (LayerNorm): LayerNorm((1024,), eps=1e-12, elementwise_affine=True)
            (dropout): Dropout(p=0.1, inplace=False)
          )
        )
        (2): BertLayer(
          (attention): BertAttention(
            (self): BertSelfAttention(
              (query): Linear(in_features=1024, out_features=1024, bias=True)
              (key): Linear(in_features=1024, out_features=1024, bias=True)
              (value): Linear(in_features=1024, out_features=1024, bias=True)
              (dropout): Dropout(p=0.1, inplace=False)
            )
            (output): BertSelfOutput(
              (dense): Linear(in_features=1024, out_features=1024, bias=True)
              (LayerNorm): LayerNorm((1024,), eps=1e-12, elementwise_affine=True)
              (dropout): Dropout(p=0.1, inplace=False)
            )
          )
          (intermediate): BertIntermediate(
            (dense): Linear(in_features=1024, out_features=4096, bias=True)
            (intermediate_act_fn): GELUActivation()
          )
          (output): BertOutput(
            (dense): Linear(in_features=4096, out_features=1024, bias=True)
            (LayerNorm): LayerNorm((1024,), eps=1e-12, elementwise_affine=True)
            (dropout): Dropout(p=0.1, inplace=False)
          )
        )
        (3): BertLayer(
          (attention): BertAttention(
            (self): BertSelfAttention(
              (query): Linear(in_features=1024, out_features=1024, bias=True)
              (key): Linear(in_features=1024, out_features=1024, bias=True)
              (value): Linear(in_features=1024, out_features=1024, bias=True)
              (dropout): Dropout(p=0.1, inplace=False)
            )
            (output): BertSelfOutput(
              (dense): Linear(in_features=1024, out_features=1024, bias=True)
              (LayerNorm): LayerNorm((1024,), eps=1e-12, elementwise_affine=True)
              (dropout): Dropout(p=0.1, inplace=False)
            )
          )
          (intermediate): BertIntermediate(
            (dense): Linear(in_features=1024, out_features=4096, bias=True)
            (intermediate_act_fn): GELUActivation()
          )
          (output): BertOutput(
            (dense): Linear(in_features=4096, out_features=1024, bias=True)
            (LayerNorm): LayerNorm((1024,), eps=1e-12, elementwise_affine=True)
            (dropout): Dropout(p=0.1, inplace=False)
          )
        )
        (4): BertLayer(
          (attention): BertAttention(
            (self): BertSelfAttention(
              (query): Linear(in_features=1024, out_features=1024, bias=True)
              (key): Linear(in_features=1024, out_features=1024, bias=True)
              (value): Linear(in_features=1024, out_features=1024, bias=True)
              (dropout): Dropout(p=0.1, inplace=False)
            )
            (output): BertSelfOutput(
              (dense): Linear(in_features=1024, out_features=1024, bias=True)
              (LayerNorm): LayerNorm((1024,), eps=1e-12, elementwise_affine=True)
              (dropout): Dropout(p=0.1, inplace=False)
            )
          )
          (intermediate): BertIntermediate(
            (dense): Linear(in_features=1024, out_features=4096, bias=True)
            (intermediate_act_fn): GELUActivation()
          )
          (output): BertOutput(
            (dense): Linear(in_features=4096, out_features=1024, bias=True)
            (LayerNorm): LayerNorm((1024,), eps=1e-12, elementwise_affine=True)
            (dropout): Dropout(p=0.1, inplace=False)
          )
        )
        (5): BertLayer(
          (attention): BertAttention(
            (self): BertSelfAttention(
              (query): Linear(in_features=1024, out_features=1024, bias=True)
              (key): Linear(in_features=1024, out_features=1024, bias=True)
              (value): Linear(in_features=1024, out_features=1024, bias=True)
              (dropout): Dropout(p=0.1, inplace=False)
            )
            (output): BertSelfOutput(
              (dense): Linear(in_features=1024, out_features=1024, bias=True)
              (LayerNorm): LayerNorm((1024,), eps=1e-12, elementwise_affine=True)
              (dropout): Dropout(p=0.1, inplace=False)
            )
          )
          (intermediate): BertIntermediate(
            (dense): Linear(in_features=1024, out_features=4096, bias=True)
            (intermediate_act_fn): GELUActivation()
          )
          (output): BertOutput(
            (dense): Linear(in_features=4096, out_features=1024, bias=True)
            (LayerNorm): LayerNorm((1024,), eps=1e-12, elementwise_affine=True)
            (dropout): Dropout(p=0.1, inplace=False)
          )
        )
        (6): BertLayer(
          (attention): BertAttention(
            (self): BertSelfAttention(
              (query): Linear(in_features=1024, out_features=1024, bias=True)
              (key): Linear(in_features=1024, out_features=1024, bias=True)
              (value): Linear(in_features=1024, out_features=1024, bias=True)
              (dropout): Dropout(p=0.1, inplace=False)
            )
            (output): BertSelfOutput(
              (dense): Linear(in_features=1024, out_features=1024, bias=True)
              (LayerNorm): LayerNorm((1024,), eps=1e-12, elementwise_affine=True)
              (dropout): Dropout(p=0.1, inplace=False)
            )
          )
          (intermediate): BertIntermediate(
            (dense): Linear(in_features=1024, out_features=4096, bias=True)
            (intermediate_act_fn): GELUActivation()
          )
          (output): BertOutput(
            (dense): Linear(in_features=4096, out_features=1024, bias=True)
            (LayerNorm): LayerNorm((1024,), eps=1e-12, elementwise_affine=True)
            (dropout): Dropout(p=0.1, inplace=False)
          )
        )
        (7): BertLayer(
          (attention): BertAttention(
            (self): BertSelfAttention(
              (query): Linear(in_features=1024, out_features=1024, bias=True)
              (key): Linear(in_features=1024, out_features=1024, bias=True)
              (value): Linear(in_features=1024, out_features=1024, bias=True)
              (dropout): Dropout(p=0.1, inplace=False)
            )
            (output): BertSelfOutput(
              (dense): Linear(in_features=1024, out_features=1024, bias=True)
              (LayerNorm): LayerNorm((1024,), eps=1e-12, elementwise_affine=True)
              (dropout): Dropout(p=0.1, inplace=False)
            )
          )
          (intermediate): BertIntermediate(
            (dense): Linear(in_features=1024, out_features=4096, bias=True)
            (intermediate_act_fn): GELUActivation()
          )
          (output): BertOutput(
            (dense): Linear(in_features=4096, out_features=1024, bias=True)
            (LayerNorm): LayerNorm((1024,), eps=1e-12, elementwise_affine=True)
            (dropout): Dropout(p=0.1, inplace=False)
          )
        )
        (8): BertLayer(
          (attention): BertAttention(
            (self): BertSelfAttention(
              (query): Linear(in_features=1024, out_features=1024, bias=True)
              (key): Linear(in_features=1024, out_features=1024, bias=True)
              (value): Linear(in_features=1024, out_features=1024, bias=True)
              (dropout): Dropout(p=0.1, inplace=False)
            )
            (output): BertSelfOutput(
              (dense): Linear(in_features=1024, out_features=1024, bias=True)
              (LayerNorm): LayerNorm((1024,), eps=1e-12, elementwise_affine=True)
              (dropout): Dropout(p=0.1, inplace=False)
            )
          )
          (intermediate): BertIntermediate(
            (dense): Linear(in_features=1024, out_features=4096, bias=True)
            (intermediate_act_fn): GELUActivation()
          )
          (output): BertOutput(
            (dense): Linear(in_features=4096, out_features=1024, bias=True)
            (LayerNorm): LayerNorm((1024,), eps=1e-12, elementwise_affine=True)
            (dropout): Dropout(p=0.1, inplace=False)
          )
        )
        (9): BertLayer(
          (attention): BertAttention(
            (self): BertSelfAttention(
              (query): Linear(in_features=1024, out_features=1024, bias=True)
              (key): Linear(in_features=1024, out_features=1024, bias=True)
              (value): Linear(in_features=1024, out_features=1024, bias=True)
              (dropout): Dropout(p=0.1, inplace=False)
            )
            (output): BertSelfOutput(
              (dense): Linear(in_features=1024, out_features=1024, bias=True)
              (LayerNorm): LayerNorm((1024,), eps=1e-12, elementwise_affine=True)
              (dropout): Dropout(p=0.1, inplace=False)
            )
          )
          (intermediate): BertIntermediate(
            (dense): Linear(in_features=1024, out_features=4096, bias=True)
            (intermediate_act_fn): GELUActivation()
          )
          (output): BertOutput(
            (dense): Linear(in_features=4096, out_features=1024, bias=True)
            (LayerNorm): LayerNorm((1024,), eps=1e-12, elementwise_affine=True)
            (dropout): Dropout(p=0.1, inplace=False)
          )
        )
        (10): BertLayer(
          (attention): BertAttention(
            (self): BertSelfAttention(
              (query): Linear(in_features=1024, out_features=1024, bias=True)
              (key): Linear(in_features=1024, out_features=1024, bias=True)
              (value): Linear(in_features=1024, out_features=1024, bias=True)
              (dropout): Dropout(p=0.1, inplace=False)
            )
            (output): BertSelfOutput(
              (dense): Linear(in_features=1024, out_features=1024, bias=True)
              (LayerNorm): LayerNorm((1024,), eps=1e-12, elementwise_affine=True)
              (dropout): Dropout(p=0.1, inplace=False)
            )
          )
          (intermediate): BertIntermediate(
            (dense): Linear(in_features=1024, out_features=4096, bias=True)
            (intermediate_act_fn): GELUActivation()
          )
          (output): BertOutput(
            (dense): Linear(in_features=4096, out_features=1024, bias=True)
            (LayerNorm): LayerNorm((1024,), eps=1e-12, elementwise_affine=True)
            (dropout): Dropout(p=0.1, inplace=False)
          )
        )
        (11): BertLayer(
          (attention): BertAttention(
            (self): BertSelfAttention(
              (query): Linear(in_features=1024, out_features=1024, bias=True)
              (key): Linear(in_features=1024, out_features=1024, bias=True)
              (value): Linear(in_features=1024, out_features=1024, bias=True)
              (dropout): Dropout(p=0.1, inplace=False)
            )
            (output): BertSelfOutput(
              (dense): Linear(in_features=1024, out_features=1024, bias=True)
              (LayerNorm): LayerNorm((1024,), eps=1e-12, elementwise_affine=True)
              (dropout): Dropout(p=0.1, inplace=False)
            )
          )
          (intermediate): BertIntermediate(
            (dense): Linear(in_features=1024, out_features=4096, bias=True)
            (intermediate_act_fn): GELUActivation()
          )
          (output): BertOutput(
            (dense): Linear(in_features=4096, out_features=1024, bias=True)
            (LayerNorm): LayerNorm((1024,), eps=1e-12, elementwise_affine=True)
            (dropout): Dropout(p=0.1, inplace=False)
          )
        )
        (12): BertLayer(
          (attention): BertAttention(
            (self): BertSelfAttention(
              (query): Linear(in_features=1024, out_features=1024, bias=True)
              (key): Linear(in_features=1024, out_features=1024, bias=True)
              (value): Linear(in_features=1024, out_features=1024, bias=True)
              (dropout): Dropout(p=0.1, inplace=False)
            )
            (output): BertSelfOutput(
              (dense): Linear(in_features=1024, out_features=1024, bias=True)
              (LayerNorm): LayerNorm((1024,), eps=1e-12, elementwise_affine=True)
              (dropout): Dropout(p=0.1, inplace=False)
            )
          )
          (intermediate): BertIntermediate(
            (dense): Linear(in_features=1024, out_features=4096, bias=True)
            (intermediate_act_fn): GELUActivation()
          )
          (output): BertOutput(
            (dense): Linear(in_features=4096, out_features=1024, bias=True)
            (LayerNorm): LayerNorm((1024,), eps=1e-12, elementwise_affine=True)
            (dropout): Dropout(p=0.1, inplace=False)
          )
        )
        (13): BertLayer(
          (attention): BertAttention(
            (self): BertSelfAttention(
              (query): Linear(in_features=1024, out_features=1024, bias=True)
              (key): Linear(in_features=1024, out_features=1024, bias=True)
              (value): Linear(in_features=1024, out_features=1024, bias=True)
              (dropout): Dropout(p=0.1, inplace=False)
            )
            (output): BertSelfOutput(
              (dense): Linear(in_features=1024, out_features=1024, bias=True)
              (LayerNorm): LayerNorm((1024,), eps=1e-12, elementwise_affine=True)
              (dropout): Dropout(p=0.1, inplace=False)
            )
          )
          (intermediate): BertIntermediate(
            (dense): Linear(in_features=1024, out_features=4096, bias=True)
            (intermediate_act_fn): GELUActivation()
          )
          (output): BertOutput(
            (dense): Linear(in_features=4096, out_features=1024, bias=True)
            (LayerNorm): LayerNorm((1024,), eps=1e-12, elementwise_affine=True)
            (dropout): Dropout(p=0.1, inplace=False)
          )
        )
        (14): BertLayer(
          (attention): BertAttention(
            (self): BertSelfAttention(
              (query): Linear(in_features=1024, out_features=1024, bias=True)
              (key): Linear(in_features=1024, out_features=1024, bias=True)
              (value): Linear(in_features=1024, out_features=1024, bias=True)
              (dropout): Dropout(p=0.1, inplace=False)
            )
            (output): BertSelfOutput(
              (dense): Linear(in_features=1024, out_features=1024, bias=True)
              (LayerNorm): LayerNorm((1024,), eps=1e-12, elementwise_affine=True)
              (dropout): Dropout(p=0.1, inplace=False)
            )
          )
          (intermediate): BertIntermediate(
            (dense): Linear(in_features=1024, out_features=4096, bias=True)
            (intermediate_act_fn): GELUActivation()
          )
          (output): BertOutput(
            (dense): Linear(in_features=4096, out_features=1024, bias=True)
            (LayerNorm): LayerNorm((1024,), eps=1e-12, elementwise_affine=True)
            (dropout): Dropout(p=0.1, inplace=False)
          )
        )
        (15): BertLayer(
          (attention): BertAttention(
            (self): BertSelfAttention(
              (query): Linear(in_features=1024, out_features=1024, bias=True)
              (key): Linear(in_features=1024, out_features=1024, bias=True)
              (value): Linear(in_features=1024, out_features=1024, bias=True)
              (dropout): Dropout(p=0.1, inplace=False)
            )
            (output): BertSelfOutput(
              (dense): Linear(in_features=1024, out_features=1024, bias=True)
              (LayerNorm): LayerNorm((1024,), eps=1e-12, elementwise_affine=True)
              (dropout): Dropout(p=0.1, inplace=False)
            )
          )
          (intermediate): BertIntermediate(
            (dense): Linear(in_features=1024, out_features=4096, bias=True)
            (intermediate_act_fn): GELUActivation()
          )
          (output): BertOutput(
            (dense): Linear(in_features=4096, out_features=1024, bias=True)
            (LayerNorm): LayerNorm((1024,), eps=1e-12, elementwise_affine=True)
            (dropout): Dropout(p=0.1, inplace=False)
          )
        )
        (16): BertLayer(
          (attention): BertAttention(
            (self): BertSelfAttention(
              (query): Linear(in_features=1024, out_features=1024, bias=True)
              (key): Linear(in_features=1024, out_features=1024, bias=True)
              (value): Linear(in_features=1024, out_features=1024, bias=True)
              (dropout): Dropout(p=0.1, inplace=False)
            )
            (output): BertSelfOutput(
              (dense): Linear(in_features=1024, out_features=1024, bias=True)
              (LayerNorm): LayerNorm((1024,), eps=1e-12, elementwise_affine=True)
              (dropout): Dropout(p=0.1, inplace=False)
            )
          )
          (intermediate): BertIntermediate(
            (dense): Linear(in_features=1024, out_features=4096, bias=True)
            (intermediate_act_fn): GELUActivation()
          )
          (output): BertOutput(
            (dense): Linear(in_features=4096, out_features=1024, bias=True)
            (LayerNorm): LayerNorm((1024,), eps=1e-12, elementwise_affine=True)
            (dropout): Dropout(p=0.1, inplace=False)
          )
        )
        (17): BertLayer(
          (attention): BertAttention(
            (self): BertSelfAttention(
              (query): Linear(in_features=1024, out_features=1024, bias=True)
              (key): Linear(in_features=1024, out_features=1024, bias=True)
              (value): Linear(in_features=1024, out_features=1024, bias=True)
              (dropout): Dropout(p=0.1, inplace=False)
            )
            (output): BertSelfOutput(
              (dense): Linear(in_features=1024, out_features=1024, bias=True)
              (LayerNorm): LayerNorm((1024,), eps=1e-12, elementwise_affine=True)
              (dropout): Dropout(p=0.1, inplace=False)
            )
          )
          (intermediate): BertIntermediate(
            (dense): Linear(in_features=1024, out_features=4096, bias=True)
            (intermediate_act_fn): GELUActivation()
          )
          (output): BertOutput(
            (dense): Linear(in_features=4096, out_features=1024, bias=True)
            (LayerNorm): LayerNorm((1024,), eps=1e-12, elementwise_affine=True)
            (dropout): Dropout(p=0.1, inplace=False)
          )
        )
        (18): BertLayer(
          (attention): BertAttention(
            (self): BertSelfAttention(
              (query): Linear(in_features=1024, out_features=1024, bias=True)
              (key): Linear(in_features=1024, out_features=1024, bias=True)
              (value): Linear(in_features=1024, out_features=1024, bias=True)
              (dropout): Dropout(p=0.1, inplace=False)
            )
            (output): BertSelfOutput(
              (dense): Linear(in_features=1024, out_features=1024, bias=True)
              (LayerNorm): LayerNorm((1024,), eps=1e-12, elementwise_affine=True)
              (dropout): Dropout(p=0.1, inplace=False)
            )
          )
          (intermediate): BertIntermediate(
            (dense): Linear(in_features=1024, out_features=4096, bias=True)
            (intermediate_act_fn): GELUActivation()
          )
          (output): BertOutput(
            (dense): Linear(in_features=4096, out_features=1024, bias=True)
            (LayerNorm): LayerNorm((1024,), eps=1e-12, elementwise_affine=True)
            (dropout): Dropout(p=0.1, inplace=False)
          )
        )
        (19): BertLayer(
          (attention): BertAttention(
            (self): BertSelfAttention(
              (query): Linear(in_features=1024, out_features=1024, bias=True)
              (key): Linear(in_features=1024, out_features=1024, bias=True)
              (value): Linear(in_features=1024, out_features=1024, bias=True)
              (dropout): Dropout(p=0.1, inplace=False)
            )
            (output): BertSelfOutput(
              (dense): Linear(in_features=1024, out_features=1024, bias=True)
              (LayerNorm): LayerNorm((1024,), eps=1e-12, elementwise_affine=True)
              (dropout): Dropout(p=0.1, inplace=False)
            )
          )
          (intermediate): BertIntermediate(
            (dense): Linear(in_features=1024, out_features=4096, bias=True)
            (intermediate_act_fn): GELUActivation()
          )
          (output): BertOutput(
            (dense): Linear(in_features=4096, out_features=1024, bias=True)
            (LayerNorm): LayerNorm((1024,), eps=1e-12, elementwise_affine=True)
            (dropout): Dropout(p=0.1, inplace=False)
          )
        )
        (20): BertLayer(
          (attention): BertAttention(
            (self): BertSelfAttention(
              (query): Linear(in_features=1024, out_features=1024, bias=True)
              (key): Linear(in_features=1024, out_features=1024, bias=True)
              (value): Linear(in_features=1024, out_features=1024, bias=True)
              (dropout): Dropout(p=0.1, inplace=False)
            )
            (output): BertSelfOutput(
              (dense): Linear(in_features=1024, out_features=1024, bias=True)
              (LayerNorm): LayerNorm((1024,), eps=1e-12, elementwise_affine=True)
              (dropout): Dropout(p=0.1, inplace=False)
            )
          )
          (intermediate): BertIntermediate(
            (dense): Linear(in_features=1024, out_features=4096, bias=True)
            (intermediate_act_fn): GELUActivation()
          )
          (output): BertOutput(
            (dense): Linear(in_features=4096, out_features=1024, bias=True)
            (LayerNorm): LayerNorm((1024,), eps=1e-12, elementwise_affine=True)
            (dropout): Dropout(p=0.1, inplace=False)
          )
        )
        (21): BertLayer(
          (attention): BertAttention(
            (self): BertSelfAttention(
              (query): Linear(in_features=1024, out_features=1024, bias=True)
              (key): Linear(in_features=1024, out_features=1024, bias=True)
              (value): Linear(in_features=1024, out_features=1024, bias=True)
              (dropout): Dropout(p=0.1, inplace=False)
            )
            (output): BertSelfOutput(
              (dense): Linear(in_features=1024, out_features=1024, bias=True)
              (LayerNorm): LayerNorm((1024,), eps=1e-12, elementwise_affine=True)
              (dropout): Dropout(p=0.1, inplace=False)
            )
          )
          (intermediate): BertIntermediate(
            (dense): Linear(in_features=1024, out_features=4096, bias=True)
            (intermediate_act_fn): GELUActivation()
          )
          (output): BertOutput(
            (dense): Linear(in_features=4096, out_features=1024, bias=True)
            (LayerNorm): LayerNorm((1024,), eps=1e-12, elementwise_affine=True)
            (dropout): Dropout(p=0.1, inplace=False)
          )
        )
        (22): BertLayer(
          (attention): BertAttention(
            (self): BertSelfAttention(
              (query): Linear(in_features=1024, out_features=1024, bias=True)
              (key): Linear(in_features=1024, out_features=1024, bias=True)
              (value): Linear(in_features=1024, out_features=1024, bias=True)
              (dropout): Dropout(p=0.1, inplace=False)
            )
            (output): BertSelfOutput(
              (dense): Linear(in_features=1024, out_features=1024, bias=True)
              (LayerNorm): LayerNorm((1024,), eps=1e-12, elementwise_affine=True)
              (dropout): Dropout(p=0.1, inplace=False)
            )
          )
          (intermediate): BertIntermediate(
            (dense): Linear(in_features=1024, out_features=4096, bias=True)
            (intermediate_act_fn): GELUActivation()
          )
          (output): BertOutput(
            (dense): Linear(in_features=4096, out_features=1024, bias=True)
            (LayerNorm): LayerNorm((1024,), eps=1e-12, elementwise_affine=True)
            (dropout): Dropout(p=0.1, inplace=False)
          )
        )
        (23): BertLayer(
          (attention): BertAttention(
            (self): BertSelfAttention(
              (query): Linear(in_features=1024, out_features=1024, bias=True)
              (key): Linear(in_features=1024, out_features=1024, bias=True)
              (value): Linear(in_features=1024, out_features=1024, bias=True)
              (dropout): Dropout(p=0.1, inplace=False)
            )
            (output): BertSelfOutput(
              (dense): Linear(in_features=1024, out_features=1024, bias=True)
              (LayerNorm): LayerNorm((1024,), eps=1e-12, elementwise_affine=True)
              (dropout): Dropout(p=0.1, inplace=False)
            )
          )
          (intermediate): BertIntermediate(
            (dense): Linear(in_features=1024, out_features=4096, bias=True)
            (intermediate_act_fn): GELUActivation()
          )
          (output): BertOutput(
            (dense): Linear(in_features=4096, out_features=1024, bias=True)
            (LayerNorm): LayerNorm((1024,), eps=1e-12, elementwise_affine=True)
            (dropout): Dropout(p=0.1, inplace=False)
          )
        )
      )
    )
    (pooler): BertPooler(
      (dense): Linear(in_features=1024, out_features=1024, bias=True)
      (activation): Tanh()
    )
  )
  (dropout): Dropout(p=0.1, inplace=False)
  (classifier): Linear(in_features=1024, out_features=2, bias=True)
)
BertModel(
  (embeddings): BertEmbeddings(
    (word_embeddings): Embedding(21128, 1024, padding_idx=1)
    (position_embeddings): Embedding(512, 1024)
    (token_type_embeddings): Embedding(2, 1024)
    (LayerNorm): LayerNorm((1024,), eps=1e-12, elementwise_affine=True)
    (dropout): Dropout(p=0.1, inplace=False)
  )
  (encoder): BertEncoder(
    (layer): ModuleList(
      (0): BertLayer(
        (attention): BertAttention(
          (self): BertSelfAttention(
            (query): Linear(in_features=1024, out_features=1024, bias=True)
            (key): Linear(in_features=1024, out_features=1024, bias=True)
            (value): Linear(in_features=1024, out_features=1024, bias=True)
            (dropout): Dropout(p=0.1, inplace=False)
          )
          (output): BertSelfOutput(
            (dense): Linear(in_features=1024, out_features=1024, bias=True)
            (LayerNorm): LayerNorm((1024,), eps=1e-12, elementwise_affine=True)
            (dropout): Dropout(p=0.1, inplace=False)
          )
        )
        (intermediate): BertIntermediate(
          (dense): Linear(in_features=1024, out_features=4096, bias=True)
          (intermediate_act_fn): GELUActivation()
        )
        (output): BertOutput(
          (dense): Linear(in_features=4096, out_features=1024, bias=True)
          (LayerNorm): LayerNorm((1024,), eps=1e-12, elementwise_affine=True)
          (dropout): Dropout(p=0.1, inplace=False)
        )
      )
      (1): BertLayer(
        (attention): BertAttention(
          (self): BertSelfAttention(
            (query): Linear(in_features=1024, out_features=1024, bias=True)
            (key): Linear(in_features=1024, out_features=1024, bias=True)
            (value): Linear(in_features=1024, out_features=1024, bias=True)
            (dropout): Dropout(p=0.1, inplace=False)
          )
          (output): BertSelfOutput(
            (dense): Linear(in_features=1024, out_features=1024, bias=True)
            (LayerNorm): LayerNorm((1024,), eps=1e-12, elementwise_affine=True)
            (dropout): Dropout(p=0.1, inplace=False)
          )
        )
        (intermediate): BertIntermediate(
          (dense): Linear(in_features=1024, out_features=4096, bias=True)
          (intermediate_act_fn): GELUActivation()
        )
        (output): BertOutput(
          (dense): Linear(in_features=4096, out_features=1024, bias=True)
          (LayerNorm): LayerNorm((1024,), eps=1e-12, elementwise_affine=True)
          (dropout): Dropout(p=0.1, inplace=False)
        )
      )
      (2): BertLayer(
        (attention): BertAttention(
          (self): BertSelfAttention(
            (query): Linear(in_features=1024, out_features=1024, bias=True)
            (key): Linear(in_features=1024, out_features=1024, bias=True)
            (value): Linear(in_features=1024, out_features=1024, bias=True)
            (dropout): Dropout(p=0.1, inplace=False)
          )
          (output): BertSelfOutput(
            (dense): Linear(in_features=1024, out_features=1024, bias=True)
            (LayerNorm): LayerNorm((1024,), eps=1e-12, elementwise_affine=True)
            (dropout): Dropout(p=0.1, inplace=False)
          )
        )
        (intermediate): BertIntermediate(
          (dense): Linear(in_features=1024, out_features=4096, bias=True)
          (intermediate_act_fn): GELUActivation()
        )
        (output): BertOutput(
          (dense): Linear(in_features=4096, out_features=1024, bias=True)
          (LayerNorm): LayerNorm((1024,), eps=1e-12, elementwise_affine=True)
          (dropout): Dropout(p=0.1, inplace=False)
        )
      )
      (3): BertLayer(
        (attention): BertAttention(
          (self): BertSelfAttention(
            (query): Linear(in_features=1024, out_features=1024, bias=True)
            (key): Linear(in_features=1024, out_features=1024, bias=True)
            (value): Linear(in_features=1024, out_features=1024, bias=True)
            (dropout): Dropout(p=0.1, inplace=False)
          )
          (output): BertSelfOutput(
            (dense): Linear(in_features=1024, out_features=1024, bias=True)
            (LayerNorm): LayerNorm((1024,), eps=1e-12, elementwise_affine=True)
            (dropout): Dropout(p=0.1, inplace=False)
          )
        )
        (intermediate): BertIntermediate(
          (dense): Linear(in_features=1024, out_features=4096, bias=True)
          (intermediate_act_fn): GELUActivation()
        )
        (output): BertOutput(
          (dense): Linear(in_features=4096, out_features=1024, bias=True)
          (LayerNorm): LayerNorm((1024,), eps=1e-12, elementwise_affine=True)
          (dropout): Dropout(p=0.1, inplace=False)
        )
      )
      (4): BertLayer(
        (attention): BertAttention(
          (self): BertSelfAttention(
            (query): Linear(in_features=1024, out_features=1024, bias=True)
            (key): Linear(in_features=1024, out_features=1024, bias=True)
            (value): Linear(in_features=1024, out_features=1024, bias=True)
            (dropout): Dropout(p=0.1, inplace=False)
          )
          (output): BertSelfOutput(
            (dense): Linear(in_features=1024, out_features=1024, bias=True)
            (LayerNorm): LayerNorm((1024,), eps=1e-12, elementwise_affine=True)
            (dropout): Dropout(p=0.1, inplace=False)
          )
        )
        (intermediate): BertIntermediate(
          (dense): Linear(in_features=1024, out_features=4096, bias=True)
          (intermediate_act_fn): GELUActivation()
        )
        (output): BertOutput(
          (dense): Linear(in_features=4096, out_features=1024, bias=True)
          (LayerNorm): LayerNorm((1024,), eps=1e-12, elementwise_affine=True)
          (dropout): Dropout(p=0.1, inplace=False)
        )
      )
      (5): BertLayer(
        (attention): BertAttention(
          (self): BertSelfAttention(
            (query): Linear(in_features=1024, out_features=1024, bias=True)
            (key): Linear(in_features=1024, out_features=1024, bias=True)
            (value): Linear(in_features=1024, out_features=1024, bias=True)
            (dropout): Dropout(p=0.1, inplace=False)
          )
          (output): BertSelfOutput(
            (dense): Linear(in_features=1024, out_features=1024, bias=True)
            (LayerNorm): LayerNorm((1024,), eps=1e-12, elementwise_affine=True)
            (dropout): Dropout(p=0.1, inplace=False)
          )
        )
        (intermediate): BertIntermediate(
          (dense): Linear(in_features=1024, out_features=4096, bias=True)
          (intermediate_act_fn): GELUActivation()
        )
        (output): BertOutput(
          (dense): Linear(in_features=4096, out_features=1024, bias=True)
          (LayerNorm): LayerNorm((1024,), eps=1e-12, elementwise_affine=True)
          (dropout): Dropout(p=0.1, inplace=False)
        )
      )
      (6): BertLayer(
        (attention): BertAttention(
          (self): BertSelfAttention(
            (query): Linear(in_features=1024, out_features=1024, bias=True)
            (key): Linear(in_features=1024, out_features=1024, bias=True)
            (value): Linear(in_features=1024, out_features=1024, bias=True)
            (dropout): Dropout(p=0.1, inplace=False)
          )
          (output): BertSelfOutput(
            (dense): Linear(in_features=1024, out_features=1024, bias=True)
            (LayerNorm): LayerNorm((1024,), eps=1e-12, elementwise_affine=True)
            (dropout): Dropout(p=0.1, inplace=False)
          )
        )
        (intermediate): BertIntermediate(
          (dense): Linear(in_features=1024, out_features=4096, bias=True)
          (intermediate_act_fn): GELUActivation()
        )
        (output): BertOutput(
          (dense): Linear(in_features=4096, out_features=1024, bias=True)
          (LayerNorm): LayerNorm((1024,), eps=1e-12, elementwise_affine=True)
          (dropout): Dropout(p=0.1, inplace=False)
        )
      )
      (7): BertLayer(
        (attention): BertAttention(
          (self): BertSelfAttention(
            (query): Linear(in_features=1024, out_features=1024, bias=True)
            (key): Linear(in_features=1024, out_features=1024, bias=True)
            (value): Linear(in_features=1024, out_features=1024, bias=True)
            (dropout): Dropout(p=0.1, inplace=False)
          )
          (output): BertSelfOutput(
            (dense): Linear(in_features=1024, out_features=1024, bias=True)
            (LayerNorm): LayerNorm((1024,), eps=1e-12, elementwise_affine=True)
            (dropout): Dropout(p=0.1, inplace=False)
          )
        )
        (intermediate): BertIntermediate(
          (dense): Linear(in_features=1024, out_features=4096, bias=True)
          (intermediate_act_fn): GELUActivation()
        )
        (output): BertOutput(
          (dense): Linear(in_features=4096, out_features=1024, bias=True)
          (LayerNorm): LayerNorm((1024,), eps=1e-12, elementwise_affine=True)
          (dropout): Dropout(p=0.1, inplace=False)
        )
      )
      (8): BertLayer(
        (attention): BertAttention(
          (self): BertSelfAttention(
            (query): Linear(in_features=1024, out_features=1024, bias=True)
            (key): Linear(in_features=1024, out_features=1024, bias=True)
            (value): Linear(in_features=1024, out_features=1024, bias=True)
            (dropout): Dropout(p=0.1, inplace=False)
          )
          (output): BertSelfOutput(
            (dense): Linear(in_features=1024, out_features=1024, bias=True)
            (LayerNorm): LayerNorm((1024,), eps=1e-12, elementwise_affine=True)
            (dropout): Dropout(p=0.1, inplace=False)
          )
        )
        (intermediate): BertIntermediate(
          (dense): Linear(in_features=1024, out_features=4096, bias=True)
          (intermediate_act_fn): GELUActivation()
        )
        (output): BertOutput(
          (dense): Linear(in_features=4096, out_features=1024, bias=True)
          (LayerNorm): LayerNorm((1024,), eps=1e-12, elementwise_affine=True)
          (dropout): Dropout(p=0.1, inplace=False)
        )
      )
      (9): BertLayer(
        (attention): BertAttention(
          (self): BertSelfAttention(
            (query): Linear(in_features=1024, out_features=1024, bias=True)
            (key): Linear(in_features=1024, out_features=1024, bias=True)
            (value): Linear(in_features=1024, out_features=1024, bias=True)
            (dropout): Dropout(p=0.1, inplace=False)
          )
          (output): BertSelfOutput(
            (dense): Linear(in_features=1024, out_features=1024, bias=True)
            (LayerNorm): LayerNorm((1024,), eps=1e-12, elementwise_affine=True)
            (dropout): Dropout(p=0.1, inplace=False)
          )
        )
        (intermediate): BertIntermediate(
          (dense): Linear(in_features=1024, out_features=4096, bias=True)
          (intermediate_act_fn): GELUActivation()
        )
        (output): BertOutput(
          (dense): Linear(in_features=4096, out_features=1024, bias=True)
          (LayerNorm): LayerNorm((1024,), eps=1e-12, elementwise_affine=True)
          (dropout): Dropout(p=0.1, inplace=False)
        )
      )
      (10): BertLayer(
        (attention): BertAttention(
          (self): BertSelfAttention(
            (query): Linear(in_features=1024, out_features=1024, bias=True)
            (key): Linear(in_features=1024, out_features=1024, bias=True)
            (value): Linear(in_features=1024, out_features=1024, bias=True)
            (dropout): Dropout(p=0.1, inplace=False)
          )
          (output): BertSelfOutput(
            (dense): Linear(in_features=1024, out_features=1024, bias=True)
            (LayerNorm): LayerNorm((1024,), eps=1e-12, elementwise_affine=True)
            (dropout): Dropout(p=0.1, inplace=False)
          )
        )
        (intermediate): BertIntermediate(
          (dense): Linear(in_features=1024, out_features=4096, bias=True)
          (intermediate_act_fn): GELUActivation()
        )
        (output): BertOutput(
          (dense): Linear(in_features=4096, out_features=1024, bias=True)
          (LayerNorm): LayerNorm((1024,), eps=1e-12, elementwise_affine=True)
          (dropout): Dropout(p=0.1, inplace=False)
        )
      )
      (11): BertLayer(
        (attention): BertAttention(
          (self): BertSelfAttention(
            (query): Linear(in_features=1024, out_features=1024, bias=True)
            (key): Linear(in_features=1024, out_features=1024, bias=True)
            (value): Linear(in_features=1024, out_features=1024, bias=True)
            (dropout): Dropout(p=0.1, inplace=False)
          )
          (output): BertSelfOutput(
            (dense): Linear(in_features=1024, out_features=1024, bias=True)
            (LayerNorm): LayerNorm((1024,), eps=1e-12, elementwise_affine=True)
            (dropout): Dropout(p=0.1, inplace=False)
          )
        )
        (intermediate): BertIntermediate(
          (dense): Linear(in_features=1024, out_features=4096, bias=True)
          (intermediate_act_fn): GELUActivation()
        )
        (output): BertOutput(
          (dense): Linear(in_features=4096, out_features=1024, bias=True)
          (LayerNorm): LayerNorm((1024,), eps=1e-12, elementwise_affine=True)
          (dropout): Dropout(p=0.1, inplace=False)
        )
      )
      (12): BertLayer(
        (attention): BertAttention(
          (self): BertSelfAttention(
            (query): Linear(in_features=1024, out_features=1024, bias=True)
            (key): Linear(in_features=1024, out_features=1024, bias=True)
            (value): Linear(in_features=1024, out_features=1024, bias=True)
            (dropout): Dropout(p=0.1, inplace=False)
          )
          (output): BertSelfOutput(
            (dense): Linear(in_features=1024, out_features=1024, bias=True)
            (LayerNorm): LayerNorm((1024,), eps=1e-12, elementwise_affine=True)
            (dropout): Dropout(p=0.1, inplace=False)
          )
        )
        (intermediate): BertIntermediate(
          (dense): Linear(in_features=1024, out_features=4096, bias=True)
          (intermediate_act_fn): GELUActivation()
        )
        (output): BertOutput(
          (dense): Linear(in_features=4096, out_features=1024, bias=True)
          (LayerNorm): LayerNorm((1024,), eps=1e-12, elementwise_affine=True)
          (dropout): Dropout(p=0.1, inplace=False)
        )
      )
      (13): BertLayer(
        (attention): BertAttention(
          (self): BertSelfAttention(
            (query): Linear(in_features=1024, out_features=1024, bias=True)
            (key): Linear(in_features=1024, out_features=1024, bias=True)
            (value): Linear(in_features=1024, out_features=1024, bias=True)
            (dropout): Dropout(p=0.1, inplace=False)
          )
          (output): BertSelfOutput(
            (dense): Linear(in_features=1024, out_features=1024, bias=True)
            (LayerNorm): LayerNorm((1024,), eps=1e-12, elementwise_affine=True)
            (dropout): Dropout(p=0.1, inplace=False)
          )
        )
        (intermediate): BertIntermediate(
          (dense): Linear(in_features=1024, out_features=4096, bias=True)
          (intermediate_act_fn): GELUActivation()
        )
        (output): BertOutput(
          (dense): Linear(in_features=4096, out_features=1024, bias=True)
          (LayerNorm): LayerNorm((1024,), eps=1e-12, elementwise_affine=True)
          (dropout): Dropout(p=0.1, inplace=False)
        )
      )
      (14): BertLayer(
        (attention): BertAttention(
          (self): BertSelfAttention(
            (query): Linear(in_features=1024, out_features=1024, bias=True)
            (key): Linear(in_features=1024, out_features=1024, bias=True)
            (value): Linear(in_features=1024, out_features=1024, bias=True)
            (dropout): Dropout(p=0.1, inplace=False)
          )
          (output): BertSelfOutput(
            (dense): Linear(in_features=1024, out_features=1024, bias=True)
            (LayerNorm): LayerNorm((1024,), eps=1e-12, elementwise_affine=True)
            (dropout): Dropout(p=0.1, inplace=False)
          )
        )
        (intermediate): BertIntermediate(
          (dense): Linear(in_features=1024, out_features=4096, bias=True)
          (intermediate_act_fn): GELUActivation()
        )
        (output): BertOutput(
          (dense): Linear(in_features=4096, out_features=1024, bias=True)
          (LayerNorm): LayerNorm((1024,), eps=1e-12, elementwise_affine=True)
          (dropout): Dropout(p=0.1, inplace=False)
        )
      )
      (15): BertLayer(
        (attention): BertAttention(
          (self): BertSelfAttention(
            (query): Linear(in_features=1024, out_features=1024, bias=True)
            (key): Linear(in_features=1024, out_features=1024, bias=True)
            (value): Linear(in_features=1024, out_features=1024, bias=True)
            (dropout): Dropout(p=0.1, inplace=False)
          )
          (output): BertSelfOutput(
            (dense): Linear(in_features=1024, out_features=1024, bias=True)
            (LayerNorm): LayerNorm((1024,), eps=1e-12, elementwise_affine=True)
            (dropout): Dropout(p=0.1, inplace=False)
          )
        )
        (intermediate): BertIntermediate(
          (dense): Linear(in_features=1024, out_features=4096, bias=True)
          (intermediate_act_fn): GELUActivation()
        )
        (output): BertOutput(
          (dense): Linear(in_features=4096, out_features=1024, bias=True)
          (LayerNorm): LayerNorm((1024,), eps=1e-12, elementwise_affine=True)
          (dropout): Dropout(p=0.1, inplace=False)
        )
      )
      (16): BertLayer(
        (attention): BertAttention(
          (self): BertSelfAttention(
            (query): Linear(in_features=1024, out_features=1024, bias=True)
            (key): Linear(in_features=1024, out_features=1024, bias=True)
            (value): Linear(in_features=1024, out_features=1024, bias=True)
            (dropout): Dropout(p=0.1, inplace=False)
          )
          (output): BertSelfOutput(
            (dense): Linear(in_features=1024, out_features=1024, bias=True)
            (LayerNorm): LayerNorm((1024,), eps=1e-12, elementwise_affine=True)
            (dropout): Dropout(p=0.1, inplace=False)
          )
        )
        (intermediate): BertIntermediate(
          (dense): Linear(in_features=1024, out_features=4096, bias=True)
          (intermediate_act_fn): GELUActivation()
        )
        (output): BertOutput(
          (dense): Linear(in_features=4096, out_features=1024, bias=True)
          (LayerNorm): LayerNorm((1024,), eps=1e-12, elementwise_affine=True)
          (dropout): Dropout(p=0.1, inplace=False)
        )
      )
      (17): BertLayer(
        (attention): BertAttention(
          (self): BertSelfAttention(
            (query): Linear(in_features=1024, out_features=1024, bias=True)
            (key): Linear(in_features=1024, out_features=1024, bias=True)
            (value): Linear(in_features=1024, out_features=1024, bias=True)
            (dropout): Dropout(p=0.1, inplace=False)
          )
          (output): BertSelfOutput(
            (dense): Linear(in_features=1024, out_features=1024, bias=True)
            (LayerNorm): LayerNorm((1024,), eps=1e-12, elementwise_affine=True)
            (dropout): Dropout(p=0.1, inplace=False)
          )
        )
        (intermediate): BertIntermediate(
          (dense): Linear(in_features=1024, out_features=4096, bias=True)
          (intermediate_act_fn): GELUActivation()
        )
        (output): BertOutput(
          (dense): Linear(in_features=4096, out_features=1024, bias=True)
          (LayerNorm): LayerNorm((1024,), eps=1e-12, elementwise_affine=True)
          (dropout): Dropout(p=0.1, inplace=False)
        )
      )
      (18): BertLayer(
        (attention): BertAttention(
          (self): BertSelfAttention(
            (query): Linear(in_features=1024, out_features=1024, bias=True)
            (key): Linear(in_features=1024, out_features=1024, bias=True)
            (value): Linear(in_features=1024, out_features=1024, bias=True)
            (dropout): Dropout(p=0.1, inplace=False)
          )
          (output): BertSelfOutput(
            (dense): Linear(in_features=1024, out_features=1024, bias=True)
            (LayerNorm): LayerNorm((1024,), eps=1e-12, elementwise_affine=True)
            (dropout): Dropout(p=0.1, inplace=False)
          )
        )
        (intermediate): BertIntermediate(
          (dense): Linear(in_features=1024, out_features=4096, bias=True)
          (intermediate_act_fn): GELUActivation()
        )
        (output): BertOutput(
          (dense): Linear(in_features=4096, out_features=1024, bias=True)
          (LayerNorm): LayerNorm((1024,), eps=1e-12, elementwise_affine=True)
          (dropout): Dropout(p=0.1, inplace=False)
        )
      )
      (19): BertLayer(
        (attention): BertAttention(
          (self): BertSelfAttention(
            (query): Linear(in_features=1024, out_features=1024, bias=True)
            (key): Linear(in_features=1024, out_features=1024, bias=True)
            (value): Linear(in_features=1024, out_features=1024, bias=True)
            (dropout): Dropout(p=0.1, inplace=False)
          )
          (output): BertSelfOutput(
            (dense): Linear(in_features=1024, out_features=1024, bias=True)
            (LayerNorm): LayerNorm((1024,), eps=1e-12, elementwise_affine=True)
            (dropout): Dropout(p=0.1, inplace=False)
          )
        )
        (intermediate): BertIntermediate(
          (dense): Linear(in_features=1024, out_features=4096, bias=True)
          (intermediate_act_fn): GELUActivation()
        )
        (output): BertOutput(
          (dense): Linear(in_features=4096, out_features=1024, bias=True)
          (LayerNorm): LayerNorm((1024,), eps=1e-12, elementwise_affine=True)
          (dropout): Dropout(p=0.1, inplace=False)
        )
      )
      (20): BertLayer(
        (attention): BertAttention(
          (self): BertSelfAttention(
            (query): Linear(in_features=1024, out_features=1024, bias=True)
            (key): Linear(in_features=1024, out_features=1024, bias=True)
            (value): Linear(in_features=1024, out_features=1024, bias=True)
            (dropout): Dropout(p=0.1, inplace=False)
          )
          (output): BertSelfOutput(
            (dense): Linear(in_features=1024, out_features=1024, bias=True)
            (LayerNorm): LayerNorm((1024,), eps=1e-12, elementwise_affine=True)
            (dropout): Dropout(p=0.1, inplace=False)
          )
        )
        (intermediate): BertIntermediate(
          (dense): Linear(in_features=1024, out_features=4096, bias=True)
          (intermediate_act_fn): GELUActivation()
        )
        (output): BertOutput(
          (dense): Linear(in_features=4096, out_features=1024, bias=True)
          (LayerNorm): LayerNorm((1024,), eps=1e-12, elementwise_affine=True)
          (dropout): Dropout(p=0.1, inplace=False)
        )
      )
      (21): BertLayer(
        (attention): BertAttention(
          (self): BertSelfAttention(
            (query): Linear(in_features=1024, out_features=1024, bias=True)
            (key): Linear(in_features=1024, out_features=1024, bias=True)
            (value): Linear(in_features=1024, out_features=1024, bias=True)
            (dropout): Dropout(p=0.1, inplace=False)
          )
          (output): BertSelfOutput(
            (dense): Linear(in_features=1024, out_features=1024, bias=True)
            (LayerNorm): LayerNorm((1024,), eps=1e-12, elementwise_affine=True)
            (dropout): Dropout(p=0.1, inplace=False)
          )
        )
        (intermediate): BertIntermediate(
          (dense): Linear(in_features=1024, out_features=4096, bias=True)
          (intermediate_act_fn): GELUActivation()
        )
        (output): BertOutput(
          (dense): Linear(in_features=4096, out_features=1024, bias=True)
          (LayerNorm): LayerNorm((1024,), eps=1e-12, elementwise_affine=True)
          (dropout): Dropout(p=0.1, inplace=False)
        )
      )
      (22): BertLayer(
        (attention): BertAttention(
          (self): BertSelfAttention(
            (query): Linear(in_features=1024, out_features=1024, bias=True)
            (key): Linear(in_features=1024, out_features=1024, bias=True)
            (value): Linear(in_features=1024, out_features=1024, bias=True)
            (dropout): Dropout(p=0.1, inplace=False)
          )
          (output): BertSelfOutput(
            (dense): Linear(in_features=1024, out_features=1024, bias=True)
            (LayerNorm): LayerNorm((1024,), eps=1e-12, elementwise_affine=True)
            (dropout): Dropout(p=0.1, inplace=False)
          )
        )
        (intermediate): BertIntermediate(
          (dense): Linear(in_features=1024, out_features=4096, bias=True)
          (intermediate_act_fn): GELUActivation()
        )
        (output): BertOutput(
          (dense): Linear(in_features=4096, out_features=1024, bias=True)
          (LayerNorm): LayerNorm((1024,), eps=1e-12, elementwise_affine=True)
          (dropout): Dropout(p=0.1, inplace=False)
        )
      )
      (23): BertLayer(
        (attention): BertAttention(
          (self): BertSelfAttention(
            (query): Linear(in_features=1024, out_features=1024, bias=True)
            (key): Linear(in_features=1024, out_features=1024, bias=True)
            (value): Linear(in_features=1024, out_features=1024, bias=True)
            (dropout): Dropout(p=0.1, inplace=False)
          )
          (output): BertSelfOutput(
            (dense): Linear(in_features=1024, out_features=1024, bias=True)
            (LayerNorm): LayerNorm((1024,), eps=1e-12, elementwise_affine=True)
            (dropout): Dropout(p=0.1, inplace=False)
          )
        )
        (intermediate): BertIntermediate(
          (dense): Linear(in_features=1024, out_features=4096, bias=True)
          (intermediate_act_fn): GELUActivation()
        )
        (output): BertOutput(
          (dense): Linear(in_features=4096, out_features=1024, bias=True)
          (LayerNorm): LayerNorm((1024,), eps=1e-12, elementwise_affine=True)
          (dropout): Dropout(p=0.1, inplace=False)
        )
      )
    )
  )
  (pooler): BertPooler(
    (dense): Linear(in_features=1024, out_features=1024, bias=True)
    (activation): Tanh()
  )
)
BertEmbeddings(
  (word_embeddings): Embedding(21128, 1024, padding_idx=1)
  (position_embeddings): Embedding(512, 1024)
  (token_type_embeddings): Embedding(2, 1024)
  (LayerNorm): LayerNorm((1024,), eps=1e-12, elementwise_affine=True)
  (dropout): Dropout(p=0.1, inplace=False)
)
Embedding(21128, 1024, padding_idx=1)
Embedding(512, 1024)
Embedding(2, 1024)
LayerNorm((1024,), eps=1e-12, elementwise_affine=True)
Dropout(p=0.1, inplace=False)
BertEncoder(
  (layer): ModuleList(
    (0): BertLayer(
      (attention): BertAttention(
        (self): BertSelfAttention(
          (query): Linear(in_features=1024, out_features=1024, bias=True)
          (key): Linear(in_features=1024, out_features=1024, bias=True)
          (value): Linear(in_features=1024, out_features=1024, bias=True)
          (dropout): Dropout(p=0.1, inplace=False)
        )
        (output): BertSelfOutput(
          (dense): Linear(in_features=1024, out_features=1024, bias=True)
          (LayerNorm): LayerNorm((1024,), eps=1e-12, elementwise_affine=True)
          (dropout): Dropout(p=0.1, inplace=False)
        )
      )
      (intermediate): BertIntermediate(
        (dense): Linear(in_features=1024, out_features=4096, bias=True)
        (intermediate_act_fn): GELUActivation()
      )
      (output): BertOutput(
        (dense): Linear(in_features=4096, out_features=1024, bias=True)
        (LayerNorm): LayerNorm((1024,), eps=1e-12, elementwise_affine=True)
        (dropout): Dropout(p=0.1, inplace=False)
      )
    )
    (1): BertLayer(
      (attention): BertAttention(
        (self): BertSelfAttention(
          (query): Linear(in_features=1024, out_features=1024, bias=True)
          (key): Linear(in_features=1024, out_features=1024, bias=True)
          (value): Linear(in_features=1024, out_features=1024, bias=True)
          (dropout): Dropout(p=0.1, inplace=False)
        )
        (output): BertSelfOutput(
          (dense): Linear(in_features=1024, out_features=1024, bias=True)
          (LayerNorm): LayerNorm((1024,), eps=1e-12, elementwise_affine=True)
          (dropout): Dropout(p=0.1, inplace=False)
        )
      )
      (intermediate): BertIntermediate(
        (dense): Linear(in_features=1024, out_features=4096, bias=True)
        (intermediate_act_fn): GELUActivation()
      )
      (output): BertOutput(
        (dense): Linear(in_features=4096, out_features=1024, bias=True)
        (LayerNorm): LayerNorm((1024,), eps=1e-12, elementwise_affine=True)
        (dropout): Dropout(p=0.1, inplace=False)
      )
    )
    (2): BertLayer(
      (attention): BertAttention(
        (self): BertSelfAttention(
          (query): Linear(in_features=1024, out_features=1024, bias=True)
          (key): Linear(in_features=1024, out_features=1024, bias=True)
          (value): Linear(in_features=1024, out_features=1024, bias=True)
          (dropout): Dropout(p=0.1, inplace=False)
        )
        (output): BertSelfOutput(
          (dense): Linear(in_features=1024, out_features=1024, bias=True)
          (LayerNorm): LayerNorm((1024,), eps=1e-12, elementwise_affine=True)
          (dropout): Dropout(p=0.1, inplace=False)
        )
      )
      (intermediate): BertIntermediate(
        (dense): Linear(in_features=1024, out_features=4096, bias=True)
        (intermediate_act_fn): GELUActivation()
      )
      (output): BertOutput(
        (dense): Linear(in_features=4096, out_features=1024, bias=True)
        (LayerNorm): LayerNorm((1024,), eps=1e-12, elementwise_affine=True)
        (dropout): Dropout(p=0.1, inplace=False)
      )
    )
    (3): BertLayer(
      (attention): BertAttention(
        (self): BertSelfAttention(
          (query): Linear(in_features=1024, out_features=1024, bias=True)
          (key): Linear(in_features=1024, out_features=1024, bias=True)
          (value): Linear(in_features=1024, out_features=1024, bias=True)
          (dropout): Dropout(p=0.1, inplace=False)
        )
        (output): BertSelfOutput(
          (dense): Linear(in_features=1024, out_features=1024, bias=True)
          (LayerNorm): LayerNorm((1024,), eps=1e-12, elementwise_affine=True)
          (dropout): Dropout(p=0.1, inplace=False)
        )
      )
      (intermediate): BertIntermediate(
        (dense): Linear(in_features=1024, out_features=4096, bias=True)
        (intermediate_act_fn): GELUActivation()
      )
      (output): BertOutput(
        (dense): Linear(in_features=4096, out_features=1024, bias=True)
        (LayerNorm): LayerNorm((1024,), eps=1e-12, elementwise_affine=True)
        (dropout): Dropout(p=0.1, inplace=False)
      )
    )
    (4): BertLayer(
      (attention): BertAttention(
        (self): BertSelfAttention(
          (query): Linear(in_features=1024, out_features=1024, bias=True)
          (key): Linear(in_features=1024, out_features=1024, bias=True)
          (value): Linear(in_features=1024, out_features=1024, bias=True)
          (dropout): Dropout(p=0.1, inplace=False)
        )
        (output): BertSelfOutput(
          (dense): Linear(in_features=1024, out_features=1024, bias=True)
          (LayerNorm): LayerNorm((1024,), eps=1e-12, elementwise_affine=True)
          (dropout): Dropout(p=0.1, inplace=False)
        )
      )
      (intermediate): BertIntermediate(
        (dense): Linear(in_features=1024, out_features=4096, bias=True)
        (intermediate_act_fn): GELUActivation()
      )
      (output): BertOutput(
        (dense): Linear(in_features=4096, out_features=1024, bias=True)
        (LayerNorm): LayerNorm((1024,), eps=1e-12, elementwise_affine=True)
        (dropout): Dropout(p=0.1, inplace=False)
      )
    )
    (5): BertLayer(
      (attention): BertAttention(
        (self): BertSelfAttention(
          (query): Linear(in_features=1024, out_features=1024, bias=True)
          (key): Linear(in_features=1024, out_features=1024, bias=True)
          (value): Linear(in_features=1024, out_features=1024, bias=True)
          (dropout): Dropout(p=0.1, inplace=False)
        )
        (output): BertSelfOutput(
          (dense): Linear(in_features=1024, out_features=1024, bias=True)
          (LayerNorm): LayerNorm((1024,), eps=1e-12, elementwise_affine=True)
          (dropout): Dropout(p=0.1, inplace=False)
        )
      )
      (intermediate): BertIntermediate(
        (dense): Linear(in_features=1024, out_features=4096, bias=True)
        (intermediate_act_fn): GELUActivation()
      )
      (output): BertOutput(
        (dense): Linear(in_features=4096, out_features=1024, bias=True)
        (LayerNorm): LayerNorm((1024,), eps=1e-12, elementwise_affine=True)
        (dropout): Dropout(p=0.1, inplace=False)
      )
    )
    (6): BertLayer(
      (attention): BertAttention(
        (self): BertSelfAttention(
          (query): Linear(in_features=1024, out_features=1024, bias=True)
          (key): Linear(in_features=1024, out_features=1024, bias=True)
          (value): Linear(in_features=1024, out_features=1024, bias=True)
          (dropout): Dropout(p=0.1, inplace=False)
        )
        (output): BertSelfOutput(
          (dense): Linear(in_features=1024, out_features=1024, bias=True)
          (LayerNorm): LayerNorm((1024,), eps=1e-12, elementwise_affine=True)
          (dropout): Dropout(p=0.1, inplace=False)
        )
      )
      (intermediate): BertIntermediate(
        (dense): Linear(in_features=1024, out_features=4096, bias=True)
        (intermediate_act_fn): GELUActivation()
      )
      (output): BertOutput(
        (dense): Linear(in_features=4096, out_features=1024, bias=True)
        (LayerNorm): LayerNorm((1024,), eps=1e-12, elementwise_affine=True)
        (dropout): Dropout(p=0.1, inplace=False)
      )
    )
    (7): BertLayer(
      (attention): BertAttention(
        (self): BertSelfAttention(
          (query): Linear(in_features=1024, out_features=1024, bias=True)
          (key): Linear(in_features=1024, out_features=1024, bias=True)
          (value): Linear(in_features=1024, out_features=1024, bias=True)
          (dropout): Dropout(p=0.1, inplace=False)
        )
        (output): BertSelfOutput(
          (dense): Linear(in_features=1024, out_features=1024, bias=True)
          (LayerNorm): LayerNorm((1024,), eps=1e-12, elementwise_affine=True)
          (dropout): Dropout(p=0.1, inplace=False)
        )
      )
      (intermediate): BertIntermediate(
        (dense): Linear(in_features=1024, out_features=4096, bias=True)
        (intermediate_act_fn): GELUActivation()
      )
      (output): BertOutput(
        (dense): Linear(in_features=4096, out_features=1024, bias=True)
        (LayerNorm): LayerNorm((1024,), eps=1e-12, elementwise_affine=True)
        (dropout): Dropout(p=0.1, inplace=False)
      )
    )
    (8): BertLayer(
      (attention): BertAttention(
        (self): BertSelfAttention(
          (query): Linear(in_features=1024, out_features=1024, bias=True)
          (key): Linear(in_features=1024, out_features=1024, bias=True)
          (value): Linear(in_features=1024, out_features=1024, bias=True)
          (dropout): Dropout(p=0.1, inplace=False)
        )
        (output): BertSelfOutput(
          (dense): Linear(in_features=1024, out_features=1024, bias=True)
          (LayerNorm): LayerNorm((1024,), eps=1e-12, elementwise_affine=True)
          (dropout): Dropout(p=0.1, inplace=False)
        )
      )
      (intermediate): BertIntermediate(
        (dense): Linear(in_features=1024, out_features=4096, bias=True)
        (intermediate_act_fn): GELUActivation()
      )
      (output): BertOutput(
        (dense): Linear(in_features=4096, out_features=1024, bias=True)
        (LayerNorm): LayerNorm((1024,), eps=1e-12, elementwise_affine=True)
        (dropout): Dropout(p=0.1, inplace=False)
      )
    )
    (9): BertLayer(
      (attention): BertAttention(
        (self): BertSelfAttention(
          (query): Linear(in_features=1024, out_features=1024, bias=True)
          (key): Linear(in_features=1024, out_features=1024, bias=True)
          (value): Linear(in_features=1024, out_features=1024, bias=True)
          (dropout): Dropout(p=0.1, inplace=False)
        )
        (output): BertSelfOutput(
          (dense): Linear(in_features=1024, out_features=1024, bias=True)
          (LayerNorm): LayerNorm((1024,), eps=1e-12, elementwise_affine=True)
          (dropout): Dropout(p=0.1, inplace=False)
        )
      )
      (intermediate): BertIntermediate(
        (dense): Linear(in_features=1024, out_features=4096, bias=True)
        (intermediate_act_fn): GELUActivation()
      )
      (output): BertOutput(
        (dense): Linear(in_features=4096, out_features=1024, bias=True)
        (LayerNorm): LayerNorm((1024,), eps=1e-12, elementwise_affine=True)
        (dropout): Dropout(p=0.1, inplace=False)
      )
    )
    (10): BertLayer(
      (attention): BertAttention(
        (self): BertSelfAttention(
          (query): Linear(in_features=1024, out_features=1024, bias=True)
          (key): Linear(in_features=1024, out_features=1024, bias=True)
          (value): Linear(in_features=1024, out_features=1024, bias=True)
          (dropout): Dropout(p=0.1, inplace=False)
        )
        (output): BertSelfOutput(
          (dense): Linear(in_features=1024, out_features=1024, bias=True)
          (LayerNorm): LayerNorm((1024,), eps=1e-12, elementwise_affine=True)
          (dropout): Dropout(p=0.1, inplace=False)
        )
      )
      (intermediate): BertIntermediate(
        (dense): Linear(in_features=1024, out_features=4096, bias=True)
        (intermediate_act_fn): GELUActivation()
      )
      (output): BertOutput(
        (dense): Linear(in_features=4096, out_features=1024, bias=True)
        (LayerNorm): LayerNorm((1024,), eps=1e-12, elementwise_affine=True)
        (dropout): Dropout(p=0.1, inplace=False)
      )
    )
    (11): BertLayer(
      (attention): BertAttention(
        (self): BertSelfAttention(
          (query): Linear(in_features=1024, out_features=1024, bias=True)
          (key): Linear(in_features=1024, out_features=1024, bias=True)
          (value): Linear(in_features=1024, out_features=1024, bias=True)
          (dropout): Dropout(p=0.1, inplace=False)
        )
        (output): BertSelfOutput(
          (dense): Linear(in_features=1024, out_features=1024, bias=True)
          (LayerNorm): LayerNorm((1024,), eps=1e-12, elementwise_affine=True)
          (dropout): Dropout(p=0.1, inplace=False)
        )
      )
      (intermediate): BertIntermediate(
        (dense): Linear(in_features=1024, out_features=4096, bias=True)
        (intermediate_act_fn): GELUActivation()
      )
      (output): BertOutput(
        (dense): Linear(in_features=4096, out_features=1024, bias=True)
        (LayerNorm): LayerNorm((1024,), eps=1e-12, elementwise_affine=True)
        (dropout): Dropout(p=0.1, inplace=False)
      )
    )
    (12): BertLayer(
      (attention): BertAttention(
        (self): BertSelfAttention(
          (query): Linear(in_features=1024, out_features=1024, bias=True)
          (key): Linear(in_features=1024, out_features=1024, bias=True)
          (value): Linear(in_features=1024, out_features=1024, bias=True)
          (dropout): Dropout(p=0.1, inplace=False)
        )
        (output): BertSelfOutput(
          (dense): Linear(in_features=1024, out_features=1024, bias=True)
          (LayerNorm): LayerNorm((1024,), eps=1e-12, elementwise_affine=True)
          (dropout): Dropout(p=0.1, inplace=False)
        )
      )
      (intermediate): BertIntermediate(
        (dense): Linear(in_features=1024, out_features=4096, bias=True)
        (intermediate_act_fn): GELUActivation()
      )
      (output): BertOutput(
        (dense): Linear(in_features=4096, out_features=1024, bias=True)
        (LayerNorm): LayerNorm((1024,), eps=1e-12, elementwise_affine=True)
        (dropout): Dropout(p=0.1, inplace=False)
      )
    )
    (13): BertLayer(
      (attention): BertAttention(
        (self): BertSelfAttention(
          (query): Linear(in_features=1024, out_features=1024, bias=True)
          (key): Linear(in_features=1024, out_features=1024, bias=True)
          (value): Linear(in_features=1024, out_features=1024, bias=True)
          (dropout): Dropout(p=0.1, inplace=False)
        )
        (output): BertSelfOutput(
          (dense): Linear(in_features=1024, out_features=1024, bias=True)
          (LayerNorm): LayerNorm((1024,), eps=1e-12, elementwise_affine=True)
          (dropout): Dropout(p=0.1, inplace=False)
        )
      )
      (intermediate): BertIntermediate(
        (dense): Linear(in_features=1024, out_features=4096, bias=True)
        (intermediate_act_fn): GELUActivation()
      )
      (output): BertOutput(
        (dense): Linear(in_features=4096, out_features=1024, bias=True)
        (LayerNorm): LayerNorm((1024,), eps=1e-12, elementwise_affine=True)
        (dropout): Dropout(p=0.1, inplace=False)
      )
    )
    (14): BertLayer(
      (attention): BertAttention(
        (self): BertSelfAttention(
          (query): Linear(in_features=1024, out_features=1024, bias=True)
          (key): Linear(in_features=1024, out_features=1024, bias=True)
          (value): Linear(in_features=1024, out_features=1024, bias=True)
          (dropout): Dropout(p=0.1, inplace=False)
        )
        (output): BertSelfOutput(
          (dense): Linear(in_features=1024, out_features=1024, bias=True)
          (LayerNorm): LayerNorm((1024,), eps=1e-12, elementwise_affine=True)
          (dropout): Dropout(p=0.1, inplace=False)
        )
      )
      (intermediate): BertIntermediate(
        (dense): Linear(in_features=1024, out_features=4096, bias=True)
        (intermediate_act_fn): GELUActivation()
      )
      (output): BertOutput(
        (dense): Linear(in_features=4096, out_features=1024, bias=True)
        (LayerNorm): LayerNorm((1024,), eps=1e-12, elementwise_affine=True)
        (dropout): Dropout(p=0.1, inplace=False)
      )
    )
    (15): BertLayer(
      (attention): BertAttention(
        (self): BertSelfAttention(
          (query): Linear(in_features=1024, out_features=1024, bias=True)
          (key): Linear(in_features=1024, out_features=1024, bias=True)
          (value): Linear(in_features=1024, out_features=1024, bias=True)
          (dropout): Dropout(p=0.1, inplace=False)
        )
        (output): BertSelfOutput(
          (dense): Linear(in_features=1024, out_features=1024, bias=True)
          (LayerNorm): LayerNorm((1024,), eps=1e-12, elementwise_affine=True)
          (dropout): Dropout(p=0.1, inplace=False)
        )
      )
      (intermediate): BertIntermediate(
        (dense): Linear(in_features=1024, out_features=4096, bias=True)
        (intermediate_act_fn): GELUActivation()
      )
      (output): BertOutput(
        (dense): Linear(in_features=4096, out_features=1024, bias=True)
        (LayerNorm): LayerNorm((1024,), eps=1e-12, elementwise_affine=True)
        (dropout): Dropout(p=0.1, inplace=False)
      )
    )
    (16): BertLayer(
      (attention): BertAttention(
        (self): BertSelfAttention(
          (query): Linear(in_features=1024, out_features=1024, bias=True)
          (key): Linear(in_features=1024, out_features=1024, bias=True)
          (value): Linear(in_features=1024, out_features=1024, bias=True)
          (dropout): Dropout(p=0.1, inplace=False)
        )
        (output): BertSelfOutput(
          (dense): Linear(in_features=1024, out_features=1024, bias=True)
          (LayerNorm): LayerNorm((1024,), eps=1e-12, elementwise_affine=True)
          (dropout): Dropout(p=0.1, inplace=False)
        )
      )
      (intermediate): BertIntermediate(
        (dense): Linear(in_features=1024, out_features=4096, bias=True)
        (intermediate_act_fn): GELUActivation()
      )
      (output): BertOutput(
        (dense): Linear(in_features=4096, out_features=1024, bias=True)
        (LayerNorm): LayerNorm((1024,), eps=1e-12, elementwise_affine=True)
        (dropout): Dropout(p=0.1, inplace=False)
      )
    )
    (17): BertLayer(
      (attention): BertAttention(
        (self): BertSelfAttention(
          (query): Linear(in_features=1024, out_features=1024, bias=True)
          (key): Linear(in_features=1024, out_features=1024, bias=True)
          (value): Linear(in_features=1024, out_features=1024, bias=True)
          (dropout): Dropout(p=0.1, inplace=False)
        )
        (output): BertSelfOutput(
          (dense): Linear(in_features=1024, out_features=1024, bias=True)
          (LayerNorm): LayerNorm((1024,), eps=1e-12, elementwise_affine=True)
          (dropout): Dropout(p=0.1, inplace=False)
        )
      )
      (intermediate): BertIntermediate(
        (dense): Linear(in_features=1024, out_features=4096, bias=True)
        (intermediate_act_fn): GELUActivation()
      )
      (output): BertOutput(
        (dense): Linear(in_features=4096, out_features=1024, bias=True)
        (LayerNorm): LayerNorm((1024,), eps=1e-12, elementwise_affine=True)
        (dropout): Dropout(p=0.1, inplace=False)
      )
    )
    (18): BertLayer(
      (attention): BertAttention(
        (self): BertSelfAttention(
          (query): Linear(in_features=1024, out_features=1024, bias=True)
          (key): Linear(in_features=1024, out_features=1024, bias=True)
          (value): Linear(in_features=1024, out_features=1024, bias=True)
          (dropout): Dropout(p=0.1, inplace=False)
        )
        (output): BertSelfOutput(
          (dense): Linear(in_features=1024, out_features=1024, bias=True)
          (LayerNorm): LayerNorm((1024,), eps=1e-12, elementwise_affine=True)
          (dropout): Dropout(p=0.1, inplace=False)
        )
      )
      (intermediate): BertIntermediate(
        (dense): Linear(in_features=1024, out_features=4096, bias=True)
        (intermediate_act_fn): GELUActivation()
      )
      (output): BertOutput(
        (dense): Linear(in_features=4096, out_features=1024, bias=True)
        (LayerNorm): LayerNorm((1024,), eps=1e-12, elementwise_affine=True)
        (dropout): Dropout(p=0.1, inplace=False)
      )
    )
    (19): BertLayer(
      (attention): BertAttention(
        (self): BertSelfAttention(
          (query): Linear(in_features=1024, out_features=1024, bias=True)
          (key): Linear(in_features=1024, out_features=1024, bias=True)
          (value): Linear(in_features=1024, out_features=1024, bias=True)
          (dropout): Dropout(p=0.1, inplace=False)
        )
        (output): BertSelfOutput(
          (dense): Linear(in_features=1024, out_features=1024, bias=True)
          (LayerNorm): LayerNorm((1024,), eps=1e-12, elementwise_affine=True)
          (dropout): Dropout(p=0.1, inplace=False)
        )
      )
      (intermediate): BertIntermediate(
        (dense): Linear(in_features=1024, out_features=4096, bias=True)
        (intermediate_act_fn): GELUActivation()
      )
      (output): BertOutput(
        (dense): Linear(in_features=4096, out_features=1024, bias=True)
        (LayerNorm): LayerNorm((1024,), eps=1e-12, elementwise_affine=True)
        (dropout): Dropout(p=0.1, inplace=False)
      )
    )
    (20): BertLayer(
      (attention): BertAttention(
        (self): BertSelfAttention(
          (query): Linear(in_features=1024, out_features=1024, bias=True)
          (key): Linear(in_features=1024, out_features=1024, bias=True)
          (value): Linear(in_features=1024, out_features=1024, bias=True)
          (dropout): Dropout(p=0.1, inplace=False)
        )
        (output): BertSelfOutput(
          (dense): Linear(in_features=1024, out_features=1024, bias=True)
          (LayerNorm): LayerNorm((1024,), eps=1e-12, elementwise_affine=True)
          (dropout): Dropout(p=0.1, inplace=False)
        )
      )
      (intermediate): BertIntermediate(
        (dense): Linear(in_features=1024, out_features=4096, bias=True)
        (intermediate_act_fn): GELUActivation()
      )
      (output): BertOutput(
        (dense): Linear(in_features=4096, out_features=1024, bias=True)
        (LayerNorm): LayerNorm((1024,), eps=1e-12, elementwise_affine=True)
        (dropout): Dropout(p=0.1, inplace=False)
      )
    )
    (21): BertLayer(
      (attention): BertAttention(
        (self): BertSelfAttention(
          (query): Linear(in_features=1024, out_features=1024, bias=True)
          (key): Linear(in_features=1024, out_features=1024, bias=True)
          (value): Linear(in_features=1024, out_features=1024, bias=True)
          (dropout): Dropout(p=0.1, inplace=False)
        )
        (output): BertSelfOutput(
          (dense): Linear(in_features=1024, out_features=1024, bias=True)
          (LayerNorm): LayerNorm((1024,), eps=1e-12, elementwise_affine=True)
          (dropout): Dropout(p=0.1, inplace=False)
        )
      )
      (intermediate): BertIntermediate(
        (dense): Linear(in_features=1024, out_features=4096, bias=True)
        (intermediate_act_fn): GELUActivation()
      )
      (output): BertOutput(
        (dense): Linear(in_features=4096, out_features=1024, bias=True)
        (LayerNorm): LayerNorm((1024,), eps=1e-12, elementwise_affine=True)
        (dropout): Dropout(p=0.1, inplace=False)
      )
    )
    (22): BertLayer(
      (attention): BertAttention(
        (self): BertSelfAttention(
          (query): Linear(in_features=1024, out_features=1024, bias=True)
          (key): Linear(in_features=1024, out_features=1024, bias=True)
          (value): Linear(in_features=1024, out_features=1024, bias=True)
          (dropout): Dropout(p=0.1, inplace=False)
        )
        (output): BertSelfOutput(
          (dense): Linear(in_features=1024, out_features=1024, bias=True)
          (LayerNorm): LayerNorm((1024,), eps=1e-12, elementwise_affine=True)
          (dropout): Dropout(p=0.1, inplace=False)
        )
      )
      (intermediate): BertIntermediate(
        (dense): Linear(in_features=1024, out_features=4096, bias=True)
        (intermediate_act_fn): GELUActivation()
      )
      (output): BertOutput(
        (dense): Linear(in_features=4096, out_features=1024, bias=True)
        (LayerNorm): LayerNorm((1024,), eps=1e-12, elementwise_affine=True)
        (dropout): Dropout(p=0.1, inplace=False)
      )
    )
    (23): BertLayer(
      (attention): BertAttention(
        (self): BertSelfAttention(
          (query): Linear(in_features=1024, out_features=1024, bias=True)
          (key): Linear(in_features=1024, out_features=1024, bias=True)
          (value): Linear(in_features=1024, out_features=1024, bias=True)
          (dropout): Dropout(p=0.1, inplace=False)
        )
        (output): BertSelfOutput(
          (dense): Linear(in_features=1024, out_features=1024, bias=True)
          (LayerNorm): LayerNorm((1024,), eps=1e-12, elementwise_affine=True)
          (dropout): Dropout(p=0.1, inplace=False)
        )
      )
      (intermediate): BertIntermediate(
        (dense): Linear(in_features=1024, out_features=4096, bias=True)
        (intermediate_act_fn): GELUActivation()
      )
      (output): BertOutput(
        (dense): Linear(in_features=4096, out_features=1024, bias=True)
        (LayerNorm): LayerNorm((1024,), eps=1e-12, elementwise_affine=True)
        (dropout): Dropout(p=0.1, inplace=False)
      )
    )
  )
)
ModuleList(
  (0): BertLayer(
    (attention): BertAttention(
      (self): BertSelfAttention(
        (query): Linear(in_features=1024, out_features=1024, bias=True)
        (key): Linear(in_features=1024, out_features=1024, bias=True)
        (value): Linear(in_features=1024, out_features=1024, bias=True)
        (dropout): Dropout(p=0.1, inplace=False)
      )
      (output): BertSelfOutput(
        (dense): Linear(in_features=1024, out_features=1024, bias=True)
        (LayerNorm): LayerNorm((1024,), eps=1e-12, elementwise_affine=True)
        (dropout): Dropout(p=0.1, inplace=False)
      )
    )
    (intermediate): BertIntermediate(
      (dense): Linear(in_features=1024, out_features=4096, bias=True)
      (intermediate_act_fn): GELUActivation()
    )
    (output): BertOutput(
      (dense): Linear(in_features=4096, out_features=1024, bias=True)
      (LayerNorm): LayerNorm((1024,), eps=1e-12, elementwise_affine=True)
      (dropout): Dropout(p=0.1, inplace=False)
    )
  )
  (1): BertLayer(
    (attention): BertAttention(
      (self): BertSelfAttention(
        (query): Linear(in_features=1024, out_features=1024, bias=True)
        (key): Linear(in_features=1024, out_features=1024, bias=True)
        (value): Linear(in_features=1024, out_features=1024, bias=True)
        (dropout): Dropout(p=0.1, inplace=False)
      )
      (output): BertSelfOutput(
        (dense): Linear(in_features=1024, out_features=1024, bias=True)
        (LayerNorm): LayerNorm((1024,), eps=1e-12, elementwise_affine=True)
        (dropout): Dropout(p=0.1, inplace=False)
      )
    )
    (intermediate): BertIntermediate(
      (dense): Linear(in_features=1024, out_features=4096, bias=True)
      (intermediate_act_fn): GELUActivation()
    )
    (output): BertOutput(
      (dense): Linear(in_features=4096, out_features=1024, bias=True)
      (LayerNorm): LayerNorm((1024,), eps=1e-12, elementwise_affine=True)
      (dropout): Dropout(p=0.1, inplace=False)
    )
  )
  (2): BertLayer(
    (attention): BertAttention(
      (self): BertSelfAttention(
        (query): Linear(in_features=1024, out_features=1024, bias=True)
        (key): Linear(in_features=1024, out_features=1024, bias=True)
        (value): Linear(in_features=1024, out_features=1024, bias=True)
        (dropout): Dropout(p=0.1, inplace=False)
      )
      (output): BertSelfOutput(
        (dense): Linear(in_features=1024, out_features=1024, bias=True)
        (LayerNorm): LayerNorm((1024,), eps=1e-12, elementwise_affine=True)
        (dropout): Dropout(p=0.1, inplace=False)
      )
    )
    (intermediate): BertIntermediate(
      (dense): Linear(in_features=1024, out_features=4096, bias=True)
      (intermediate_act_fn): GELUActivation()
    )
    (output): BertOutput(
      (dense): Linear(in_features=4096, out_features=1024, bias=True)
      (LayerNorm): LayerNorm((1024,), eps=1e-12, elementwise_affine=True)
      (dropout): Dropout(p=0.1, inplace=False)
    )
  )
  (3): BertLayer(
    (attention): BertAttention(
      (self): BertSelfAttention(
        (query): Linear(in_features=1024, out_features=1024, bias=True)
        (key): Linear(in_features=1024, out_features=1024, bias=True)
        (value): Linear(in_features=1024, out_features=1024, bias=True)
        (dropout): Dropout(p=0.1, inplace=False)
      )
      (output): BertSelfOutput(
        (dense): Linear(in_features=1024, out_features=1024, bias=True)
        (LayerNorm): LayerNorm((1024,), eps=1e-12, elementwise_affine=True)
        (dropout): Dropout(p=0.1, inplace=False)
      )
    )
    (intermediate): BertIntermediate(
      (dense): Linear(in_features=1024, out_features=4096, bias=True)
      (intermediate_act_fn): GELUActivation()
    )
    (output): BertOutput(
      (dense): Linear(in_features=4096, out_features=1024, bias=True)
      (LayerNorm): LayerNorm((1024,), eps=1e-12, elementwise_affine=True)
      (dropout): Dropout(p=0.1, inplace=False)
    )
  )
  (4): BertLayer(
    (attention): BertAttention(
      (self): BertSelfAttention(
        (query): Linear(in_features=1024, out_features=1024, bias=True)
        (key): Linear(in_features=1024, out_features=1024, bias=True)
        (value): Linear(in_features=1024, out_features=1024, bias=True)
        (dropout): Dropout(p=0.1, inplace=False)
      )
      (output): BertSelfOutput(
        (dense): Linear(in_features=1024, out_features=1024, bias=True)
        (LayerNorm): LayerNorm((1024,), eps=1e-12, elementwise_affine=True)
        (dropout): Dropout(p=0.1, inplace=False)
      )
    )
    (intermediate): BertIntermediate(
      (dense): Linear(in_features=1024, out_features=4096, bias=True)
      (intermediate_act_fn): GELUActivation()
    )
    (output): BertOutput(
      (dense): Linear(in_features=4096, out_features=1024, bias=True)
      (LayerNorm): LayerNorm((1024,), eps=1e-12, elementwise_affine=True)
      (dropout): Dropout(p=0.1, inplace=False)
    )
  )
  (5): BertLayer(
    (attention): BertAttention(
      (self): BertSelfAttention(
        (query): Linear(in_features=1024, out_features=1024, bias=True)
        (key): Linear(in_features=1024, out_features=1024, bias=True)
        (value): Linear(in_features=1024, out_features=1024, bias=True)
        (dropout): Dropout(p=0.1, inplace=False)
      )
      (output): BertSelfOutput(
        (dense): Linear(in_features=1024, out_features=1024, bias=True)
        (LayerNorm): LayerNorm((1024,), eps=1e-12, elementwise_affine=True)
        (dropout): Dropout(p=0.1, inplace=False)
      )
    )
    (intermediate): BertIntermediate(
      (dense): Linear(in_features=1024, out_features=4096, bias=True)
      (intermediate_act_fn): GELUActivation()
    )
    (output): BertOutput(
      (dense): Linear(in_features=4096, out_features=1024, bias=True)
      (LayerNorm): LayerNorm((1024,), eps=1e-12, elementwise_affine=True)
      (dropout): Dropout(p=0.1, inplace=False)
    )
  )
  (6): BertLayer(
    (attention): BertAttention(
      (self): BertSelfAttention(
        (query): Linear(in_features=1024, out_features=1024, bias=True)
        (key): Linear(in_features=1024, out_features=1024, bias=True)
        (value): Linear(in_features=1024, out_features=1024, bias=True)
        (dropout): Dropout(p=0.1, inplace=False)
      )
      (output): BertSelfOutput(
        (dense): Linear(in_features=1024, out_features=1024, bias=True)
        (LayerNorm): LayerNorm((1024,), eps=1e-12, elementwise_affine=True)
        (dropout): Dropout(p=0.1, inplace=False)
      )
    )
    (intermediate): BertIntermediate(
      (dense): Linear(in_features=1024, out_features=4096, bias=True)
      (intermediate_act_fn): GELUActivation()
    )
    (output): BertOutput(
      (dense): Linear(in_features=4096, out_features=1024, bias=True)
      (LayerNorm): LayerNorm((1024,), eps=1e-12, elementwise_affine=True)
      (dropout): Dropout(p=0.1, inplace=False)
    )
  )
  (7): BertLayer(
    (attention): BertAttention(
      (self): BertSelfAttention(
        (query): Linear(in_features=1024, out_features=1024, bias=True)
        (key): Linear(in_features=1024, out_features=1024, bias=True)
        (value): Linear(in_features=1024, out_features=1024, bias=True)
        (dropout): Dropout(p=0.1, inplace=False)
      )
      (output): BertSelfOutput(
        (dense): Linear(in_features=1024, out_features=1024, bias=True)
        (LayerNorm): LayerNorm((1024,), eps=1e-12, elementwise_affine=True)
        (dropout): Dropout(p=0.1, inplace=False)
      )
    )
    (intermediate): BertIntermediate(
      (dense): Linear(in_features=1024, out_features=4096, bias=True)
      (intermediate_act_fn): GELUActivation()
    )
    (output): BertOutput(
      (dense): Linear(in_features=4096, out_features=1024, bias=True)
      (LayerNorm): LayerNorm((1024,), eps=1e-12, elementwise_affine=True)
      (dropout): Dropout(p=0.1, inplace=False)
    )
  )
  (8): BertLayer(
    (attention): BertAttention(
      (self): BertSelfAttention(
        (query): Linear(in_features=1024, out_features=1024, bias=True)
        (key): Linear(in_features=1024, out_features=1024, bias=True)
        (value): Linear(in_features=1024, out_features=1024, bias=True)
        (dropout): Dropout(p=0.1, inplace=False)
      )
      (output): BertSelfOutput(
        (dense): Linear(in_features=1024, out_features=1024, bias=True)
        (LayerNorm): LayerNorm((1024,), eps=1e-12, elementwise_affine=True)
        (dropout): Dropout(p=0.1, inplace=False)
      )
    )
    (intermediate): BertIntermediate(
      (dense): Linear(in_features=1024, out_features=4096, bias=True)
      (intermediate_act_fn): GELUActivation()
    )
    (output): BertOutput(
      (dense): Linear(in_features=4096, out_features=1024, bias=True)
      (LayerNorm): LayerNorm((1024,), eps=1e-12, elementwise_affine=True)
      (dropout): Dropout(p=0.1, inplace=False)
    )
  )
  (9): BertLayer(
    (attention): BertAttention(
      (self): BertSelfAttention(
        (query): Linear(in_features=1024, out_features=1024, bias=True)
        (key): Linear(in_features=1024, out_features=1024, bias=True)
        (value): Linear(in_features=1024, out_features=1024, bias=True)
        (dropout): Dropout(p=0.1, inplace=False)
      )
      (output): BertSelfOutput(
        (dense): Linear(in_features=1024, out_features=1024, bias=True)
        (LayerNorm): LayerNorm((1024,), eps=1e-12, elementwise_affine=True)
        (dropout): Dropout(p=0.1, inplace=False)
      )
    )
    (intermediate): BertIntermediate(
      (dense): Linear(in_features=1024, out_features=4096, bias=True)
      (intermediate_act_fn): GELUActivation()
    )
    (output): BertOutput(
      (dense): Linear(in_features=4096, out_features=1024, bias=True)
      (LayerNorm): LayerNorm((1024,), eps=1e-12, elementwise_affine=True)
      (dropout): Dropout(p=0.1, inplace=False)
    )
  )
  (10): BertLayer(
    (attention): BertAttention(
      (self): BertSelfAttention(
        (query): Linear(in_features=1024, out_features=1024, bias=True)
        (key): Linear(in_features=1024, out_features=1024, bias=True)
        (value): Linear(in_features=1024, out_features=1024, bias=True)
        (dropout): Dropout(p=0.1, inplace=False)
      )
      (output): BertSelfOutput(
        (dense): Linear(in_features=1024, out_features=1024, bias=True)
        (LayerNorm): LayerNorm((1024,), eps=1e-12, elementwise_affine=True)
        (dropout): Dropout(p=0.1, inplace=False)
      )
    )
    (intermediate): BertIntermediate(
      (dense): Linear(in_features=1024, out_features=4096, bias=True)
      (intermediate_act_fn): GELUActivation()
    )
    (output): BertOutput(
      (dense): Linear(in_features=4096, out_features=1024, bias=True)
      (LayerNorm): LayerNorm((1024,), eps=1e-12, elementwise_affine=True)
      (dropout): Dropout(p=0.1, inplace=False)
    )
  )
  (11): BertLayer(
    (attention): BertAttention(
      (self): BertSelfAttention(
        (query): Linear(in_features=1024, out_features=1024, bias=True)
        (key): Linear(in_features=1024, out_features=1024, bias=True)
        (value): Linear(in_features=1024, out_features=1024, bias=True)
        (dropout): Dropout(p=0.1, inplace=False)
      )
      (output): BertSelfOutput(
        (dense): Linear(in_features=1024, out_features=1024, bias=True)
        (LayerNorm): LayerNorm((1024,), eps=1e-12, elementwise_affine=True)
        (dropout): Dropout(p=0.1, inplace=False)
      )
    )
    (intermediate): BertIntermediate(
      (dense): Linear(in_features=1024, out_features=4096, bias=True)
      (intermediate_act_fn): GELUActivation()
    )
    (output): BertOutput(
      (dense): Linear(in_features=4096, out_features=1024, bias=True)
      (LayerNorm): LayerNorm((1024,), eps=1e-12, elementwise_affine=True)
      (dropout): Dropout(p=0.1, inplace=False)
    )
  )
  (12): BertLayer(
    (attention): BertAttention(
      (self): BertSelfAttention(
        (query): Linear(in_features=1024, out_features=1024, bias=True)
        (key): Linear(in_features=1024, out_features=1024, bias=True)
        (value): Linear(in_features=1024, out_features=1024, bias=True)
        (dropout): Dropout(p=0.1, inplace=False)
      )
      (output): BertSelfOutput(
        (dense): Linear(in_features=1024, out_features=1024, bias=True)
        (LayerNorm): LayerNorm((1024,), eps=1e-12, elementwise_affine=True)
        (dropout): Dropout(p=0.1, inplace=False)
      )
    )
    (intermediate): BertIntermediate(
      (dense): Linear(in_features=1024, out_features=4096, bias=True)
      (intermediate_act_fn): GELUActivation()
    )
    (output): BertOutput(
      (dense): Linear(in_features=4096, out_features=1024, bias=True)
      (LayerNorm): LayerNorm((1024,), eps=1e-12, elementwise_affine=True)
      (dropout): Dropout(p=0.1, inplace=False)
    )
  )
  (13): BertLayer(
    (attention): BertAttention(
      (self): BertSelfAttention(
        (query): Linear(in_features=1024, out_features=1024, bias=True)
        (key): Linear(in_features=1024, out_features=1024, bias=True)
        (value): Linear(in_features=1024, out_features=1024, bias=True)
        (dropout): Dropout(p=0.1, inplace=False)
      )
      (output): BertSelfOutput(
        (dense): Linear(in_features=1024, out_features=1024, bias=True)
        (LayerNorm): LayerNorm((1024,), eps=1e-12, elementwise_affine=True)
        (dropout): Dropout(p=0.1, inplace=False)
      )
    )
    (intermediate): BertIntermediate(
      (dense): Linear(in_features=1024, out_features=4096, bias=True)
      (intermediate_act_fn): GELUActivation()
    )
    (output): BertOutput(
      (dense): Linear(in_features=4096, out_features=1024, bias=True)
      (LayerNorm): LayerNorm((1024,), eps=1e-12, elementwise_affine=True)
      (dropout): Dropout(p=0.1, inplace=False)
    )
  )
  (14): BertLayer(
    (attention): BertAttention(
      (self): BertSelfAttention(
        (query): Linear(in_features=1024, out_features=1024, bias=True)
        (key): Linear(in_features=1024, out_features=1024, bias=True)
        (value): Linear(in_features=1024, out_features=1024, bias=True)
        (dropout): Dropout(p=0.1, inplace=False)
      )
      (output): BertSelfOutput(
        (dense): Linear(in_features=1024, out_features=1024, bias=True)
        (LayerNorm): LayerNorm((1024,), eps=1e-12, elementwise_affine=True)
        (dropout): Dropout(p=0.1, inplace=False)
      )
    )
    (intermediate): BertIntermediate(
      (dense): Linear(in_features=1024, out_features=4096, bias=True)
      (intermediate_act_fn): GELUActivation()
    )
    (output): BertOutput(
      (dense): Linear(in_features=4096, out_features=1024, bias=True)
      (LayerNorm): LayerNorm((1024,), eps=1e-12, elementwise_affine=True)
      (dropout): Dropout(p=0.1, inplace=False)
    )
  )
  (15): BertLayer(
    (attention): BertAttention(
      (self): BertSelfAttention(
        (query): Linear(in_features=1024, out_features=1024, bias=True)
        (key): Linear(in_features=1024, out_features=1024, bias=True)
        (value): Linear(in_features=1024, out_features=1024, bias=True)
        (dropout): Dropout(p=0.1, inplace=False)
      )
      (output): BertSelfOutput(
        (dense): Linear(in_features=1024, out_features=1024, bias=True)
        (LayerNorm): LayerNorm((1024,), eps=1e-12, elementwise_affine=True)
        (dropout): Dropout(p=0.1, inplace=False)
      )
    )
    (intermediate): BertIntermediate(
      (dense): Linear(in_features=1024, out_features=4096, bias=True)
      (intermediate_act_fn): GELUActivation()
    )
    (output): BertOutput(
      (dense): Linear(in_features=4096, out_features=1024, bias=True)
      (LayerNorm): LayerNorm((1024,), eps=1e-12, elementwise_affine=True)
      (dropout): Dropout(p=0.1, inplace=False)
    )
  )
  (16): BertLayer(
    (attention): BertAttention(
      (self): BertSelfAttention(
        (query): Linear(in_features=1024, out_features=1024, bias=True)
        (key): Linear(in_features=1024, out_features=1024, bias=True)
        (value): Linear(in_features=1024, out_features=1024, bias=True)
        (dropout): Dropout(p=0.1, inplace=False)
      )
      (output): BertSelfOutput(
        (dense): Linear(in_features=1024, out_features=1024, bias=True)
        (LayerNorm): LayerNorm((1024,), eps=1e-12, elementwise_affine=True)
        (dropout): Dropout(p=0.1, inplace=False)
      )
    )
    (intermediate): BertIntermediate(
      (dense): Linear(in_features=1024, out_features=4096, bias=True)
      (intermediate_act_fn): GELUActivation()
    )
    (output): BertOutput(
      (dense): Linear(in_features=4096, out_features=1024, bias=True)
      (LayerNorm): LayerNorm((1024,), eps=1e-12, elementwise_affine=True)
      (dropout): Dropout(p=0.1, inplace=False)
    )
  )
  (17): BertLayer(
    (attention): BertAttention(
      (self): BertSelfAttention(
        (query): Linear(in_features=1024, out_features=1024, bias=True)
        (key): Linear(in_features=1024, out_features=1024, bias=True)
        (value): Linear(in_features=1024, out_features=1024, bias=True)
        (dropout): Dropout(p=0.1, inplace=False)
      )
      (output): BertSelfOutput(
        (dense): Linear(in_features=1024, out_features=1024, bias=True)
        (LayerNorm): LayerNorm((1024,), eps=1e-12, elementwise_affine=True)
        (dropout): Dropout(p=0.1, inplace=False)
      )
    )
    (intermediate): BertIntermediate(
      (dense): Linear(in_features=1024, out_features=4096, bias=True)
      (intermediate_act_fn): GELUActivation()
    )
    (output): BertOutput(
      (dense): Linear(in_features=4096, out_features=1024, bias=True)
      (LayerNorm): LayerNorm((1024,), eps=1e-12, elementwise_affine=True)
      (dropout): Dropout(p=0.1, inplace=False)
    )
  )
  (18): BertLayer(
    (attention): BertAttention(
      (self): BertSelfAttention(
        (query): Linear(in_features=1024, out_features=1024, bias=True)
        (key): Linear(in_features=1024, out_features=1024, bias=True)
        (value): Linear(in_features=1024, out_features=1024, bias=True)
        (dropout): Dropout(p=0.1, inplace=False)
      )
      (output): BertSelfOutput(
        (dense): Linear(in_features=1024, out_features=1024, bias=True)
        (LayerNorm): LayerNorm((1024,), eps=1e-12, elementwise_affine=True)
        (dropout): Dropout(p=0.1, inplace=False)
      )
    )
    (intermediate): BertIntermediate(
      (dense): Linear(in_features=1024, out_features=4096, bias=True)
      (intermediate_act_fn): GELUActivation()
    )
    (output): BertOutput(
      (dense): Linear(in_features=4096, out_features=1024, bias=True)
      (LayerNorm): LayerNorm((1024,), eps=1e-12, elementwise_affine=True)
      (dropout): Dropout(p=0.1, inplace=False)
    )
  )
  (19): BertLayer(
    (attention): BertAttention(
      (self): BertSelfAttention(
        (query): Linear(in_features=1024, out_features=1024, bias=True)
        (key): Linear(in_features=1024, out_features=1024, bias=True)
        (value): Linear(in_features=1024, out_features=1024, bias=True)
        (dropout): Dropout(p=0.1, inplace=False)
      )
      (output): BertSelfOutput(
        (dense): Linear(in_features=1024, out_features=1024, bias=True)
        (LayerNorm): LayerNorm((1024,), eps=1e-12, elementwise_affine=True)
        (dropout): Dropout(p=0.1, inplace=False)
      )
    )
    (intermediate): BertIntermediate(
      (dense): Linear(in_features=1024, out_features=4096, bias=True)
      (intermediate_act_fn): GELUActivation()
    )
    (output): BertOutput(
      (dense): Linear(in_features=4096, out_features=1024, bias=True)
      (LayerNorm): LayerNorm((1024,), eps=1e-12, elementwise_affine=True)
      (dropout): Dropout(p=0.1, inplace=False)
    )
  )
  (20): BertLayer(
    (attention): BertAttention(
      (self): BertSelfAttention(
        (query): Linear(in_features=1024, out_features=1024, bias=True)
        (key): Linear(in_features=1024, out_features=1024, bias=True)
        (value): Linear(in_features=1024, out_features=1024, bias=True)
        (dropout): Dropout(p=0.1, inplace=False)
      )
      (output): BertSelfOutput(
        (dense): Linear(in_features=1024, out_features=1024, bias=True)
        (LayerNorm): LayerNorm((1024,), eps=1e-12, elementwise_affine=True)
        (dropout): Dropout(p=0.1, inplace=False)
      )
    )
    (intermediate): BertIntermediate(
      (dense): Linear(in_features=1024, out_features=4096, bias=True)
      (intermediate_act_fn): GELUActivation()
    )
    (output): BertOutput(
      (dense): Linear(in_features=4096, out_features=1024, bias=True)
      (LayerNorm): LayerNorm((1024,), eps=1e-12, elementwise_affine=True)
      (dropout): Dropout(p=0.1, inplace=False)
    )
  )
  (21): BertLayer(
    (attention): BertAttention(
      (self): BertSelfAttention(
        (query): Linear(in_features=1024, out_features=1024, bias=True)
        (key): Linear(in_features=1024, out_features=1024, bias=True)
        (value): Linear(in_features=1024, out_features=1024, bias=True)
        (dropout): Dropout(p=0.1, inplace=False)
      )
      (output): BertSelfOutput(
        (dense): Linear(in_features=1024, out_features=1024, bias=True)
        (LayerNorm): LayerNorm((1024,), eps=1e-12, elementwise_affine=True)
        (dropout): Dropout(p=0.1, inplace=False)
      )
    )
    (intermediate): BertIntermediate(
      (dense): Linear(in_features=1024, out_features=4096, bias=True)
      (intermediate_act_fn): GELUActivation()
    )
    (output): BertOutput(
      (dense): Linear(in_features=4096, out_features=1024, bias=True)
      (LayerNorm): LayerNorm((1024,), eps=1e-12, elementwise_affine=True)
      (dropout): Dropout(p=0.1, inplace=False)
    )
  )
  (22): BertLayer(
    (attention): BertAttention(
      (self): BertSelfAttention(
        (query): Linear(in_features=1024, out_features=1024, bias=True)
        (key): Linear(in_features=1024, out_features=1024, bias=True)
        (value): Linear(in_features=1024, out_features=1024, bias=True)
        (dropout): Dropout(p=0.1, inplace=False)
      )
      (output): BertSelfOutput(
        (dense): Linear(in_features=1024, out_features=1024, bias=True)
        (LayerNorm): LayerNorm((1024,), eps=1e-12, elementwise_affine=True)
        (dropout): Dropout(p=0.1, inplace=False)
      )
    )
    (intermediate): BertIntermediate(
      (dense): Linear(in_features=1024, out_features=4096, bias=True)
      (intermediate_act_fn): GELUActivation()
    )
    (output): BertOutput(
      (dense): Linear(in_features=4096, out_features=1024, bias=True)
      (LayerNorm): LayerNorm((1024,), eps=1e-12, elementwise_affine=True)
      (dropout): Dropout(p=0.1, inplace=False)
    )
  )
  (23): BertLayer(
    (attention): BertAttention(
      (self): BertSelfAttention(
        (query): Linear(in_features=1024, out_features=1024, bias=True)
        (key): Linear(in_features=1024, out_features=1024, bias=True)
        (value): Linear(in_features=1024, out_features=1024, bias=True)
        (dropout): Dropout(p=0.1, inplace=False)
      )
      (output): BertSelfOutput(
        (dense): Linear(in_features=1024, out_features=1024, bias=True)
        (LayerNorm): LayerNorm((1024,), eps=1e-12, elementwise_affine=True)
        (dropout): Dropout(p=0.1, inplace=False)
      )
    )
    (intermediate): BertIntermediate(
      (dense): Linear(in_features=1024, out_features=4096, bias=True)
      (intermediate_act_fn): GELUActivation()
    )
    (output): BertOutput(
      (dense): Linear(in_features=4096, out_features=1024, bias=True)
      (LayerNorm): LayerNorm((1024,), eps=1e-12, elementwise_affine=True)
      (dropout): Dropout(p=0.1, inplace=False)
    )
  )
)
BertLayer(
  (attention): BertAttention(
    (self): BertSelfAttention(
      (query): Linear(in_features=1024, out_features=1024, bias=True)
      (key): Linear(in_features=1024, out_features=1024, bias=True)
      (value): Linear(in_features=1024, out_features=1024, bias=True)
      (dropout): Dropout(p=0.1, inplace=False)
    )
    (output): BertSelfOutput(
      (dense): Linear(in_features=1024, out_features=1024, bias=True)
      (LayerNorm): LayerNorm((1024,), eps=1e-12, elementwise_affine=True)
      (dropout): Dropout(p=0.1, inplace=False)
    )
  )
  (intermediate): BertIntermediate(
    (dense): Linear(in_features=1024, out_features=4096, bias=True)
    (intermediate_act_fn): GELUActivation()
  )
  (output): BertOutput(
    (dense): Linear(in_features=4096, out_features=1024, bias=True)
    (LayerNorm): LayerNorm((1024,), eps=1e-12, elementwise_affine=True)
    (dropout): Dropout(p=0.1, inplace=False)
  )
)
BertAttention(
  (self): BertSelfAttention(
    (query): Linear(in_features=1024, out_features=1024, bias=True)
    (key): Linear(in_features=1024, out_features=1024, bias=True)
    (value): Linear(in_features=1024, out_features=1024, bias=True)
    (dropout): Dropout(p=0.1, inplace=False)
  )
  (output): BertSelfOutput(
    (dense): Linear(in_features=1024, out_features=1024, bias=True)
    (LayerNorm): LayerNorm((1024,), eps=1e-12, elementwise_affine=True)
    (dropout): Dropout(p=0.1, inplace=False)
  )
)
BertSelfAttention(
  (query): Linear(in_features=1024, out_features=1024, bias=True)
  (key): Linear(in_features=1024, out_features=1024, bias=True)
  (value): Linear(in_features=1024, out_features=1024, bias=True)
  (dropout): Dropout(p=0.1, inplace=False)
)
Linear(in_features=1024, out_features=1024, bias=True)
Linear(in_features=1024, out_features=1024, bias=True)
Linear(in_features=1024, out_features=1024, bias=True)
Dropout(p=0.1, inplace=False)
BertSelfOutput(
  (dense): Linear(in_features=1024, out_features=1024, bias=True)
  (LayerNorm): LayerNorm((1024,), eps=1e-12, elementwise_affine=True)
  (dropout): Dropout(p=0.1, inplace=False)
)
Linear(in_features=1024, out_features=1024, bias=True)
LayerNorm((1024,), eps=1e-12, elementwise_affine=True)
Dropout(p=0.1, inplace=False)
BertIntermediate(
  (dense): Linear(in_features=1024, out_features=4096, bias=True)
  (intermediate_act_fn): GELUActivation()
)
Linear(in_features=1024, out_features=4096, bias=True)
GELUActivation()
BertOutput(
  (dense): Linear(in_features=4096, out_features=1024, bias=True)
  (LayerNorm): LayerNorm((1024,), eps=1e-12, elementwise_affine=True)
  (dropout): Dropout(p=0.1, inplace=False)
)
Linear(in_features=4096, out_features=1024, bias=True)
LayerNorm((1024,), eps=1e-12, elementwise_affine=True)
Dropout(p=0.1, inplace=False)
BertLayer(
  (attention): BertAttention(
    (self): BertSelfAttention(
      (query): Linear(in_features=1024, out_features=1024, bias=True)
      (key): Linear(in_features=1024, out_features=1024, bias=True)
      (value): Linear(in_features=1024, out_features=1024, bias=True)
      (dropout): Dropout(p=0.1, inplace=False)
    )
    (output): BertSelfOutput(
      (dense): Linear(in_features=1024, out_features=1024, bias=True)
      (LayerNorm): LayerNorm((1024,), eps=1e-12, elementwise_affine=True)
      (dropout): Dropout(p=0.1, inplace=False)
    )
  )
  (intermediate): BertIntermediate(
    (dense): Linear(in_features=1024, out_features=4096, bias=True)
    (intermediate_act_fn): GELUActivation()
  )
  (output): BertOutput(
    (dense): Linear(in_features=4096, out_features=1024, bias=True)
    (LayerNorm): LayerNorm((1024,), eps=1e-12, elementwise_affine=True)
    (dropout): Dropout(p=0.1, inplace=False)
  )
)
BertAttention(
  (self): BertSelfAttention(
    (query): Linear(in_features=1024, out_features=1024, bias=True)
    (key): Linear(in_features=1024, out_features=1024, bias=True)
    (value): Linear(in_features=1024, out_features=1024, bias=True)
    (dropout): Dropout(p=0.1, inplace=False)
  )
  (output): BertSelfOutput(
    (dense): Linear(in_features=1024, out_features=1024, bias=True)
    (LayerNorm): LayerNorm((1024,), eps=1e-12, elementwise_affine=True)
    (dropout): Dropout(p=0.1, inplace=False)
  )
)
BertSelfAttention(
  (query): Linear(in_features=1024, out_features=1024, bias=True)
  (key): Linear(in_features=1024, out_features=1024, bias=True)
  (value): Linear(in_features=1024, out_features=1024, bias=True)
  (dropout): Dropout(p=0.1, inplace=False)
)
Linear(in_features=1024, out_features=1024, bias=True)
Linear(in_features=1024, out_features=1024, bias=True)
Linear(in_features=1024, out_features=1024, bias=True)
Dropout(p=0.1, inplace=False)
BertSelfOutput(
  (dense): Linear(in_features=1024, out_features=1024, bias=True)
  (LayerNorm): LayerNorm((1024,), eps=1e-12, elementwise_affine=True)
  (dropout): Dropout(p=0.1, inplace=False)
)
Linear(in_features=1024, out_features=1024, bias=True)
LayerNorm((1024,), eps=1e-12, elementwise_affine=True)
Dropout(p=0.1, inplace=False)
BertIntermediate(
  (dense): Linear(in_features=1024, out_features=4096, bias=True)
  (intermediate_act_fn): GELUActivation()
)
Linear(in_features=1024, out_features=4096, bias=True)
GELUActivation()
BertOutput(
  (dense): Linear(in_features=4096, out_features=1024, bias=True)
  (LayerNorm): LayerNorm((1024,), eps=1e-12, elementwise_affine=True)
  (dropout): Dropout(p=0.1, inplace=False)
)
Linear(in_features=4096, out_features=1024, bias=True)
LayerNorm((1024,), eps=1e-12, elementwise_affine=True)
Dropout(p=0.1, inplace=False)
BertLayer(
  (attention): BertAttention(
    (self): BertSelfAttention(
      (query): Linear(in_features=1024, out_features=1024, bias=True)
      (key): Linear(in_features=1024, out_features=1024, bias=True)
      (value): Linear(in_features=1024, out_features=1024, bias=True)
      (dropout): Dropout(p=0.1, inplace=False)
    )
    (output): BertSelfOutput(
      (dense): Linear(in_features=1024, out_features=1024, bias=True)
      (LayerNorm): LayerNorm((1024,), eps=1e-12, elementwise_affine=True)
      (dropout): Dropout(p=0.1, inplace=False)
    )
  )
  (intermediate): BertIntermediate(
    (dense): Linear(in_features=1024, out_features=4096, bias=True)
    (intermediate_act_fn): GELUActivation()
  )
  (output): BertOutput(
    (dense): Linear(in_features=4096, out_features=1024, bias=True)
    (LayerNorm): LayerNorm((1024,), eps=1e-12, elementwise_affine=True)
    (dropout): Dropout(p=0.1, inplace=False)
  )
)
BertAttention(
  (self): BertSelfAttention(
    (query): Linear(in_features=1024, out_features=1024, bias=True)
    (key): Linear(in_features=1024, out_features=1024, bias=True)
    (value): Linear(in_features=1024, out_features=1024, bias=True)
    (dropout): Dropout(p=0.1, inplace=False)
  )
  (output): BertSelfOutput(
    (dense): Linear(in_features=1024, out_features=1024, bias=True)
    (LayerNorm): LayerNorm((1024,), eps=1e-12, elementwise_affine=True)
    (dropout): Dropout(p=0.1, inplace=False)
  )
)
BertSelfAttention(
  (query): Linear(in_features=1024, out_features=1024, bias=True)
  (key): Linear(in_features=1024, out_features=1024, bias=True)
  (value): Linear(in_features=1024, out_features=1024, bias=True)
  (dropout): Dropout(p=0.1, inplace=False)
)
Linear(in_features=1024, out_features=1024, bias=True)
Linear(in_features=1024, out_features=1024, bias=True)
Linear(in_features=1024, out_features=1024, bias=True)
Dropout(p=0.1, inplace=False)
BertSelfOutput(
  (dense): Linear(in_features=1024, out_features=1024, bias=True)
  (LayerNorm): LayerNorm((1024,), eps=1e-12, elementwise_affine=True)
  (dropout): Dropout(p=0.1, inplace=False)
)
Linear(in_features=1024, out_features=1024, bias=True)
LayerNorm((1024,), eps=1e-12, elementwise_affine=True)
Dropout(p=0.1, inplace=False)
BertIntermediate(
  (dense): Linear(in_features=1024, out_features=4096, bias=True)
  (intermediate_act_fn): GELUActivation()
)
Linear(in_features=1024, out_features=4096, bias=True)
GELUActivation()
BertOutput(
  (dense): Linear(in_features=4096, out_features=1024, bias=True)
  (LayerNorm): LayerNorm((1024,), eps=1e-12, elementwise_affine=True)
  (dropout): Dropout(p=0.1, inplace=False)
)
Linear(in_features=4096, out_features=1024, bias=True)
LayerNorm((1024,), eps=1e-12, elementwise_affine=True)
Dropout(p=0.1, inplace=False)
BertLayer(
  (attention): BertAttention(
    (self): BertSelfAttention(
      (query): Linear(in_features=1024, out_features=1024, bias=True)
      (key): Linear(in_features=1024, out_features=1024, bias=True)
      (value): Linear(in_features=1024, out_features=1024, bias=True)
      (dropout): Dropout(p=0.1, inplace=False)
    )
    (output): BertSelfOutput(
      (dense): Linear(in_features=1024, out_features=1024, bias=True)
      (LayerNorm): LayerNorm((1024,), eps=1e-12, elementwise_affine=True)
      (dropout): Dropout(p=0.1, inplace=False)
    )
  )
  (intermediate): BertIntermediate(
    (dense): Linear(in_features=1024, out_features=4096, bias=True)
    (intermediate_act_fn): GELUActivation()
  )
  (output): BertOutput(
    (dense): Linear(in_features=4096, out_features=1024, bias=True)
    (LayerNorm): LayerNorm((1024,), eps=1e-12, elementwise_affine=True)
    (dropout): Dropout(p=0.1, inplace=False)
  )
)
BertAttention(
  (self): BertSelfAttention(
    (query): Linear(in_features=1024, out_features=1024, bias=True)
    (key): Linear(in_features=1024, out_features=1024, bias=True)
    (value): Linear(in_features=1024, out_features=1024, bias=True)
    (dropout): Dropout(p=0.1, inplace=False)
  )
  (output): BertSelfOutput(
    (dense): Linear(in_features=1024, out_features=1024, bias=True)
    (LayerNorm): LayerNorm((1024,), eps=1e-12, elementwise_affine=True)
    (dropout): Dropout(p=0.1, inplace=False)
  )
)
BertSelfAttention(
  (query): Linear(in_features=1024, out_features=1024, bias=True)
  (key): Linear(in_features=1024, out_features=1024, bias=True)
  (value): Linear(in_features=1024, out_features=1024, bias=True)
  (dropout): Dropout(p=0.1, inplace=False)
)
Linear(in_features=1024, out_features=1024, bias=True)
Linear(in_features=1024, out_features=1024, bias=True)
Linear(in_features=1024, out_features=1024, bias=True)
Dropout(p=0.1, inplace=False)
BertSelfOutput(
  (dense): Linear(in_features=1024, out_features=1024, bias=True)
  (LayerNorm): LayerNorm((1024,), eps=1e-12, elementwise_affine=True)
  (dropout): Dropout(p=0.1, inplace=False)
)
Linear(in_features=1024, out_features=1024, bias=True)
LayerNorm((1024,), eps=1e-12, elementwise_affine=True)
Dropout(p=0.1, inplace=False)
BertIntermediate(
  (dense): Linear(in_features=1024, out_features=4096, bias=True)
  (intermediate_act_fn): GELUActivation()
)
Linear(in_features=1024, out_features=4096, bias=True)
GELUActivation()
BertOutput(
  (dense): Linear(in_features=4096, out_features=1024, bias=True)
  (LayerNorm): LayerNorm((1024,), eps=1e-12, elementwise_affine=True)
  (dropout): Dropout(p=0.1, inplace=False)
)
Linear(in_features=4096, out_features=1024, bias=True)
LayerNorm((1024,), eps=1e-12, elementwise_affine=True)
Dropout(p=0.1, inplace=False)
BertLayer(
  (attention): BertAttention(
    (self): BertSelfAttention(
      (query): Linear(in_features=1024, out_features=1024, bias=True)
      (key): Linear(in_features=1024, out_features=1024, bias=True)
      (value): Linear(in_features=1024, out_features=1024, bias=True)
      (dropout): Dropout(p=0.1, inplace=False)
    )
    (output): BertSelfOutput(
      (dense): Linear(in_features=1024, out_features=1024, bias=True)
      (LayerNorm): LayerNorm((1024,), eps=1e-12, elementwise_affine=True)
      (dropout): Dropout(p=0.1, inplace=False)
    )
  )
  (intermediate): BertIntermediate(
    (dense): Linear(in_features=1024, out_features=4096, bias=True)
    (intermediate_act_fn): GELUActivation()
  )
  (output): BertOutput(
    (dense): Linear(in_features=4096, out_features=1024, bias=True)
    (LayerNorm): LayerNorm((1024,), eps=1e-12, elementwise_affine=True)
    (dropout): Dropout(p=0.1, inplace=False)
  )
)
BertAttention(
  (self): BertSelfAttention(
    (query): Linear(in_features=1024, out_features=1024, bias=True)
    (key): Linear(in_features=1024, out_features=1024, bias=True)
    (value): Linear(in_features=1024, out_features=1024, bias=True)
    (dropout): Dropout(p=0.1, inplace=False)
  )
  (output): BertSelfOutput(
    (dense): Linear(in_features=1024, out_features=1024, bias=True)
    (LayerNorm): LayerNorm((1024,), eps=1e-12, elementwise_affine=True)
    (dropout): Dropout(p=0.1, inplace=False)
  )
)
BertSelfAttention(
  (query): Linear(in_features=1024, out_features=1024, bias=True)
  (key): Linear(in_features=1024, out_features=1024, bias=True)
  (value): Linear(in_features=1024, out_features=1024, bias=True)
  (dropout): Dropout(p=0.1, inplace=False)
)
Linear(in_features=1024, out_features=1024, bias=True)
Linear(in_features=1024, out_features=1024, bias=True)
Linear(in_features=1024, out_features=1024, bias=True)
Dropout(p=0.1, inplace=False)
BertSelfOutput(
  (dense): Linear(in_features=1024, out_features=1024, bias=True)
  (LayerNorm): LayerNorm((1024,), eps=1e-12, elementwise_affine=True)
  (dropout): Dropout(p=0.1, inplace=False)
)
Linear(in_features=1024, out_features=1024, bias=True)
LayerNorm((1024,), eps=1e-12, elementwise_affine=True)
Dropout(p=0.1, inplace=False)
BertIntermediate(
  (dense): Linear(in_features=1024, out_features=4096, bias=True)
  (intermediate_act_fn): GELUActivation()
)
Linear(in_features=1024, out_features=4096, bias=True)
GELUActivation()
BertOutput(
  (dense): Linear(in_features=4096, out_features=1024, bias=True)
  (LayerNorm): LayerNorm((1024,), eps=1e-12, elementwise_affine=True)
  (dropout): Dropout(p=0.1, inplace=False)
)
Linear(in_features=4096, out_features=1024, bias=True)
LayerNorm((1024,), eps=1e-12, elementwise_affine=True)
Dropout(p=0.1, inplace=False)
BertLayer(
  (attention): BertAttention(
    (self): BertSelfAttention(
      (query): Linear(in_features=1024, out_features=1024, bias=True)
      (key): Linear(in_features=1024, out_features=1024, bias=True)
      (value): Linear(in_features=1024, out_features=1024, bias=True)
      (dropout): Dropout(p=0.1, inplace=False)
    )
    (output): BertSelfOutput(
      (dense): Linear(in_features=1024, out_features=1024, bias=True)
      (LayerNorm): LayerNorm((1024,), eps=1e-12, elementwise_affine=True)
      (dropout): Dropout(p=0.1, inplace=False)
    )
  )
  (intermediate): BertIntermediate(
    (dense): Linear(in_features=1024, out_features=4096, bias=True)
    (intermediate_act_fn): GELUActivation()
  )
  (output): BertOutput(
    (dense): Linear(in_features=4096, out_features=1024, bias=True)
    (LayerNorm): LayerNorm((1024,), eps=1e-12, elementwise_affine=True)
    (dropout): Dropout(p=0.1, inplace=False)
  )
)
BertAttention(
  (self): BertSelfAttention(
    (query): Linear(in_features=1024, out_features=1024, bias=True)
    (key): Linear(in_features=1024, out_features=1024, bias=True)
    (value): Linear(in_features=1024, out_features=1024, bias=True)
    (dropout): Dropout(p=0.1, inplace=False)
  )
  (output): BertSelfOutput(
    (dense): Linear(in_features=1024, out_features=1024, bias=True)
    (LayerNorm): LayerNorm((1024,), eps=1e-12, elementwise_affine=True)
    (dropout): Dropout(p=0.1, inplace=False)
  )
)
BertSelfAttention(
  (query): Linear(in_features=1024, out_features=1024, bias=True)
  (key): Linear(in_features=1024, out_features=1024, bias=True)
  (value): Linear(in_features=1024, out_features=1024, bias=True)
  (dropout): Dropout(p=0.1, inplace=False)
)
Linear(in_features=1024, out_features=1024, bias=True)
Linear(in_features=1024, out_features=1024, bias=True)
Linear(in_features=1024, out_features=1024, bias=True)
Dropout(p=0.1, inplace=False)
BertSelfOutput(
  (dense): Linear(in_features=1024, out_features=1024, bias=True)
  (LayerNorm): LayerNorm((1024,), eps=1e-12, elementwise_affine=True)
  (dropout): Dropout(p=0.1, inplace=False)
)
Linear(in_features=1024, out_features=1024, bias=True)
LayerNorm((1024,), eps=1e-12, elementwise_affine=True)
Dropout(p=0.1, inplace=False)
BertIntermediate(
  (dense): Linear(in_features=1024, out_features=4096, bias=True)
  (intermediate_act_fn): GELUActivation()
)
Linear(in_features=1024, out_features=4096, bias=True)
GELUActivation()
BertOutput(
  (dense): Linear(in_features=4096, out_features=1024, bias=True)
  (LayerNorm): LayerNorm((1024,), eps=1e-12, elementwise_affine=True)
  (dropout): Dropout(p=0.1, inplace=False)
)
Linear(in_features=4096, out_features=1024, bias=True)
LayerNorm((1024,), eps=1e-12, elementwise_affine=True)
Dropout(p=0.1, inplace=False)
BertLayer(
  (attention): BertAttention(
    (self): BertSelfAttention(
      (query): Linear(in_features=1024, out_features=1024, bias=True)
      (key): Linear(in_features=1024, out_features=1024, bias=True)
      (value): Linear(in_features=1024, out_features=1024, bias=True)
      (dropout): Dropout(p=0.1, inplace=False)
    )
    (output): BertSelfOutput(
      (dense): Linear(in_features=1024, out_features=1024, bias=True)
      (LayerNorm): LayerNorm((1024,), eps=1e-12, elementwise_affine=True)
      (dropout): Dropout(p=0.1, inplace=False)
    )
  )
  (intermediate): BertIntermediate(
    (dense): Linear(in_features=1024, out_features=4096, bias=True)
    (intermediate_act_fn): GELUActivation()
  )
  (output): BertOutput(
    (dense): Linear(in_features=4096, out_features=1024, bias=True)
    (LayerNorm): LayerNorm((1024,), eps=1e-12, elementwise_affine=True)
    (dropout): Dropout(p=0.1, inplace=False)
  )
)
BertAttention(
  (self): BertSelfAttention(
    (query): Linear(in_features=1024, out_features=1024, bias=True)
    (key): Linear(in_features=1024, out_features=1024, bias=True)
    (value): Linear(in_features=1024, out_features=1024, bias=True)
    (dropout): Dropout(p=0.1, inplace=False)
  )
  (output): BertSelfOutput(
    (dense): Linear(in_features=1024, out_features=1024, bias=True)
    (LayerNorm): LayerNorm((1024,), eps=1e-12, elementwise_affine=True)
    (dropout): Dropout(p=0.1, inplace=False)
  )
)
BertSelfAttention(
  (query): Linear(in_features=1024, out_features=1024, bias=True)
  (key): Linear(in_features=1024, out_features=1024, bias=True)
  (value): Linear(in_features=1024, out_features=1024, bias=True)
  (dropout): Dropout(p=0.1, inplace=False)
)
Linear(in_features=1024, out_features=1024, bias=True)
Linear(in_features=1024, out_features=1024, bias=True)
Linear(in_features=1024, out_features=1024, bias=True)
Dropout(p=0.1, inplace=False)
BertSelfOutput(
  (dense): Linear(in_features=1024, out_features=1024, bias=True)
  (LayerNorm): LayerNorm((1024,), eps=1e-12, elementwise_affine=True)
  (dropout): Dropout(p=0.1, inplace=False)
)
Linear(in_features=1024, out_features=1024, bias=True)
LayerNorm((1024,), eps=1e-12, elementwise_affine=True)
Dropout(p=0.1, inplace=False)
BertIntermediate(
  (dense): Linear(in_features=1024, out_features=4096, bias=True)
  (intermediate_act_fn): GELUActivation()
)
Linear(in_features=1024, out_features=4096, bias=True)
GELUActivation()
BertOutput(
  (dense): Linear(in_features=4096, out_features=1024, bias=True)
  (LayerNorm): LayerNorm((1024,), eps=1e-12, elementwise_affine=True)
  (dropout): Dropout(p=0.1, inplace=False)
)
Linear(in_features=4096, out_features=1024, bias=True)
LayerNorm((1024,), eps=1e-12, elementwise_affine=True)
Dropout(p=0.1, inplace=False)
BertLayer(
  (attention): BertAttention(
    (self): BertSelfAttention(
      (query): Linear(in_features=1024, out_features=1024, bias=True)
      (key): Linear(in_features=1024, out_features=1024, bias=True)
      (value): Linear(in_features=1024, out_features=1024, bias=True)
      (dropout): Dropout(p=0.1, inplace=False)
    )
    (output): BertSelfOutput(
      (dense): Linear(in_features=1024, out_features=1024, bias=True)
      (LayerNorm): LayerNorm((1024,), eps=1e-12, elementwise_affine=True)
      (dropout): Dropout(p=0.1, inplace=False)
    )
  )
  (intermediate): BertIntermediate(
    (dense): Linear(in_features=1024, out_features=4096, bias=True)
    (intermediate_act_fn): GELUActivation()
  )
  (output): BertOutput(
    (dense): Linear(in_features=4096, out_features=1024, bias=True)
    (LayerNorm): LayerNorm((1024,), eps=1e-12, elementwise_affine=True)
    (dropout): Dropout(p=0.1, inplace=False)
  )
)
BertAttention(
  (self): BertSelfAttention(
    (query): Linear(in_features=1024, out_features=1024, bias=True)
    (key): Linear(in_features=1024, out_features=1024, bias=True)
    (value): Linear(in_features=1024, out_features=1024, bias=True)
    (dropout): Dropout(p=0.1, inplace=False)
  )
  (output): BertSelfOutput(
    (dense): Linear(in_features=1024, out_features=1024, bias=True)
    (LayerNorm): LayerNorm((1024,), eps=1e-12, elementwise_affine=True)
    (dropout): Dropout(p=0.1, inplace=False)
  )
)
BertSelfAttention(
  (query): Linear(in_features=1024, out_features=1024, bias=True)
  (key): Linear(in_features=1024, out_features=1024, bias=True)
  (value): Linear(in_features=1024, out_features=1024, bias=True)
  (dropout): Dropout(p=0.1, inplace=False)
)
Linear(in_features=1024, out_features=1024, bias=True)
Linear(in_features=1024, out_features=1024, bias=True)
Linear(in_features=1024, out_features=1024, bias=True)
Dropout(p=0.1, inplace=False)
BertSelfOutput(
  (dense): Linear(in_features=1024, out_features=1024, bias=True)
  (LayerNorm): LayerNorm((1024,), eps=1e-12, elementwise_affine=True)
  (dropout): Dropout(p=0.1, inplace=False)
)
Linear(in_features=1024, out_features=1024, bias=True)
LayerNorm((1024,), eps=1e-12, elementwise_affine=True)
Dropout(p=0.1, inplace=False)
BertIntermediate(
  (dense): Linear(in_features=1024, out_features=4096, bias=True)
  (intermediate_act_fn): GELUActivation()
)
Linear(in_features=1024, out_features=4096, bias=True)
GELUActivation()
BertOutput(
  (dense): Linear(in_features=4096, out_features=1024, bias=True)
  (LayerNorm): LayerNorm((1024,), eps=1e-12, elementwise_affine=True)
  (dropout): Dropout(p=0.1, inplace=False)
)
Linear(in_features=4096, out_features=1024, bias=True)
LayerNorm((1024,), eps=1e-12, elementwise_affine=True)
Dropout(p=0.1, inplace=False)
BertLayer(
  (attention): BertAttention(
    (self): BertSelfAttention(
      (query): Linear(in_features=1024, out_features=1024, bias=True)
      (key): Linear(in_features=1024, out_features=1024, bias=True)
      (value): Linear(in_features=1024, out_features=1024, bias=True)
      (dropout): Dropout(p=0.1, inplace=False)
    )
    (output): BertSelfOutput(
      (dense): Linear(in_features=1024, out_features=1024, bias=True)
      (LayerNorm): LayerNorm((1024,), eps=1e-12, elementwise_affine=True)
      (dropout): Dropout(p=0.1, inplace=False)
    )
  )
  (intermediate): BertIntermediate(
    (dense): Linear(in_features=1024, out_features=4096, bias=True)
    (intermediate_act_fn): GELUActivation()
  )
  (output): BertOutput(
    (dense): Linear(in_features=4096, out_features=1024, bias=True)
    (LayerNorm): LayerNorm((1024,), eps=1e-12, elementwise_affine=True)
    (dropout): Dropout(p=0.1, inplace=False)
  )
)
BertAttention(
  (self): BertSelfAttention(
    (query): Linear(in_features=1024, out_features=1024, bias=True)
    (key): Linear(in_features=1024, out_features=1024, bias=True)
    (value): Linear(in_features=1024, out_features=1024, bias=True)
    (dropout): Dropout(p=0.1, inplace=False)
  )
  (output): BertSelfOutput(
    (dense): Linear(in_features=1024, out_features=1024, bias=True)
    (LayerNorm): LayerNorm((1024,), eps=1e-12, elementwise_affine=True)
    (dropout): Dropout(p=0.1, inplace=False)
  )
)
BertSelfAttention(
  (query): Linear(in_features=1024, out_features=1024, bias=True)
  (key): Linear(in_features=1024, out_features=1024, bias=True)
  (value): Linear(in_features=1024, out_features=1024, bias=True)
  (dropout): Dropout(p=0.1, inplace=False)
)
Linear(in_features=1024, out_features=1024, bias=True)
Linear(in_features=1024, out_features=1024, bias=True)
Linear(in_features=1024, out_features=1024, bias=True)
Dropout(p=0.1, inplace=False)
BertSelfOutput(
  (dense): Linear(in_features=1024, out_features=1024, bias=True)
  (LayerNorm): LayerNorm((1024,), eps=1e-12, elementwise_affine=True)
  (dropout): Dropout(p=0.1, inplace=False)
)
Linear(in_features=1024, out_features=1024, bias=True)
LayerNorm((1024,), eps=1e-12, elementwise_affine=True)
Dropout(p=0.1, inplace=False)
BertIntermediate(
  (dense): Linear(in_features=1024, out_features=4096, bias=True)
  (intermediate_act_fn): GELUActivation()
)
Linear(in_features=1024, out_features=4096, bias=True)
GELUActivation()
BertOutput(
  (dense): Linear(in_features=4096, out_features=1024, bias=True)
  (LayerNorm): LayerNorm((1024,), eps=1e-12, elementwise_affine=True)
  (dropout): Dropout(p=0.1, inplace=False)
)
Linear(in_features=4096, out_features=1024, bias=True)
LayerNorm((1024,), eps=1e-12, elementwise_affine=True)
Dropout(p=0.1, inplace=False)
BertLayer(
  (attention): BertAttention(
    (self): BertSelfAttention(
      (query): Linear(in_features=1024, out_features=1024, bias=True)
      (key): Linear(in_features=1024, out_features=1024, bias=True)
      (value): Linear(in_features=1024, out_features=1024, bias=True)
      (dropout): Dropout(p=0.1, inplace=False)
    )
    (output): BertSelfOutput(
      (dense): Linear(in_features=1024, out_features=1024, bias=True)
      (LayerNorm): LayerNorm((1024,), eps=1e-12, elementwise_affine=True)
      (dropout): Dropout(p=0.1, inplace=False)
    )
  )
  (intermediate): BertIntermediate(
    (dense): Linear(in_features=1024, out_features=4096, bias=True)
    (intermediate_act_fn): GELUActivation()
  )
  (output): BertOutput(
    (dense): Linear(in_features=4096, out_features=1024, bias=True)
    (LayerNorm): LayerNorm((1024,), eps=1e-12, elementwise_affine=True)
    (dropout): Dropout(p=0.1, inplace=False)
  )
)
BertAttention(
  (self): BertSelfAttention(
    (query): Linear(in_features=1024, out_features=1024, bias=True)
    (key): Linear(in_features=1024, out_features=1024, bias=True)
    (value): Linear(in_features=1024, out_features=1024, bias=True)
    (dropout): Dropout(p=0.1, inplace=False)
  )
  (output): BertSelfOutput(
    (dense): Linear(in_features=1024, out_features=1024, bias=True)
    (LayerNorm): LayerNorm((1024,), eps=1e-12, elementwise_affine=True)
    (dropout): Dropout(p=0.1, inplace=False)
  )
)
BertSelfAttention(
  (query): Linear(in_features=1024, out_features=1024, bias=True)
  (key): Linear(in_features=1024, out_features=1024, bias=True)
  (value): Linear(in_features=1024, out_features=1024, bias=True)
  (dropout): Dropout(p=0.1, inplace=False)
)
Linear(in_features=1024, out_features=1024, bias=True)
Linear(in_features=1024, out_features=1024, bias=True)
Linear(in_features=1024, out_features=1024, bias=True)
Dropout(p=0.1, inplace=False)
BertSelfOutput(
  (dense): Linear(in_features=1024, out_features=1024, bias=True)
  (LayerNorm): LayerNorm((1024,), eps=1e-12, elementwise_affine=True)
  (dropout): Dropout(p=0.1, inplace=False)
)
Linear(in_features=1024, out_features=1024, bias=True)
LayerNorm((1024,), eps=1e-12, elementwise_affine=True)
Dropout(p=0.1, inplace=False)
BertIntermediate(
  (dense): Linear(in_features=1024, out_features=4096, bias=True)
  (intermediate_act_fn): GELUActivation()
)
Linear(in_features=1024, out_features=4096, bias=True)
GELUActivation()
BertOutput(
  (dense): Linear(in_features=4096, out_features=1024, bias=True)
  (LayerNorm): LayerNorm((1024,), eps=1e-12, elementwise_affine=True)
  (dropout): Dropout(p=0.1, inplace=False)
)
Linear(in_features=4096, out_features=1024, bias=True)
LayerNorm((1024,), eps=1e-12, elementwise_affine=True)
Dropout(p=0.1, inplace=False)
BertLayer(
  (attention): BertAttention(
    (self): BertSelfAttention(
      (query): Linear(in_features=1024, out_features=1024, bias=True)
      (key): Linear(in_features=1024, out_features=1024, bias=True)
      (value): Linear(in_features=1024, out_features=1024, bias=True)
      (dropout): Dropout(p=0.1, inplace=False)
    )
    (output): BertSelfOutput(
      (dense): Linear(in_features=1024, out_features=1024, bias=True)
      (LayerNorm): LayerNorm((1024,), eps=1e-12, elementwise_affine=True)
      (dropout): Dropout(p=0.1, inplace=False)
    )
  )
  (intermediate): BertIntermediate(
    (dense): Linear(in_features=1024, out_features=4096, bias=True)
    (intermediate_act_fn): GELUActivation()
  )
  (output): BertOutput(
    (dense): Linear(in_features=4096, out_features=1024, bias=True)
    (LayerNorm): LayerNorm((1024,), eps=1e-12, elementwise_affine=True)
    (dropout): Dropout(p=0.1, inplace=False)
  )
)
BertAttention(
  (self): BertSelfAttention(
    (query): Linear(in_features=1024, out_features=1024, bias=True)
    (key): Linear(in_features=1024, out_features=1024, bias=True)
    (value): Linear(in_features=1024, out_features=1024, bias=True)
    (dropout): Dropout(p=0.1, inplace=False)
  )
  (output): BertSelfOutput(
    (dense): Linear(in_features=1024, out_features=1024, bias=True)
    (LayerNorm): LayerNorm((1024,), eps=1e-12, elementwise_affine=True)
    (dropout): Dropout(p=0.1, inplace=False)
  )
)
BertSelfAttention(
  (query): Linear(in_features=1024, out_features=1024, bias=True)
  (key): Linear(in_features=1024, out_features=1024, bias=True)
  (value): Linear(in_features=1024, out_features=1024, bias=True)
  (dropout): Dropout(p=0.1, inplace=False)
)
Linear(in_features=1024, out_features=1024, bias=True)
Linear(in_features=1024, out_features=1024, bias=True)
Linear(in_features=1024, out_features=1024, bias=True)
Dropout(p=0.1, inplace=False)
BertSelfOutput(
  (dense): Linear(in_features=1024, out_features=1024, bias=True)
  (LayerNorm): LayerNorm((1024,), eps=1e-12, elementwise_affine=True)
  (dropout): Dropout(p=0.1, inplace=False)
)
Linear(in_features=1024, out_features=1024, bias=True)
LayerNorm((1024,), eps=1e-12, elementwise_affine=True)
Dropout(p=0.1, inplace=False)
BertIntermediate(
  (dense): Linear(in_features=1024, out_features=4096, bias=True)
  (intermediate_act_fn): GELUActivation()
)
Linear(in_features=1024, out_features=4096, bias=True)
GELUActivation()
BertOutput(
  (dense): Linear(in_features=4096, out_features=1024, bias=True)
  (LayerNorm): LayerNorm((1024,), eps=1e-12, elementwise_affine=True)
  (dropout): Dropout(p=0.1, inplace=False)
)
Linear(in_features=4096, out_features=1024, bias=True)
LayerNorm((1024,), eps=1e-12, elementwise_affine=True)
Dropout(p=0.1, inplace=False)
BertLayer(
  (attention): BertAttention(
    (self): BertSelfAttention(
      (query): Linear(in_features=1024, out_features=1024, bias=True)
      (key): Linear(in_features=1024, out_features=1024, bias=True)
      (value): Linear(in_features=1024, out_features=1024, bias=True)
      (dropout): Dropout(p=0.1, inplace=False)
    )
    (output): BertSelfOutput(
      (dense): Linear(in_features=1024, out_features=1024, bias=True)
      (LayerNorm): LayerNorm((1024,), eps=1e-12, elementwise_affine=True)
      (dropout): Dropout(p=0.1, inplace=False)
    )
  )
  (intermediate): BertIntermediate(
    (dense): Linear(in_features=1024, out_features=4096, bias=True)
    (intermediate_act_fn): GELUActivation()
  )
  (output): BertOutput(
    (dense): Linear(in_features=4096, out_features=1024, bias=True)
    (LayerNorm): LayerNorm((1024,), eps=1e-12, elementwise_affine=True)
    (dropout): Dropout(p=0.1, inplace=False)
  )
)
BertAttention(
  (self): BertSelfAttention(
    (query): Linear(in_features=1024, out_features=1024, bias=True)
    (key): Linear(in_features=1024, out_features=1024, bias=True)
    (value): Linear(in_features=1024, out_features=1024, bias=True)
    (dropout): Dropout(p=0.1, inplace=False)
  )
  (output): BertSelfOutput(
    (dense): Linear(in_features=1024, out_features=1024, bias=True)
    (LayerNorm): LayerNorm((1024,), eps=1e-12, elementwise_affine=True)
    (dropout): Dropout(p=0.1, inplace=False)
  )
)
BertSelfAttention(
  (query): Linear(in_features=1024, out_features=1024, bias=True)
  (key): Linear(in_features=1024, out_features=1024, bias=True)
  (value): Linear(in_features=1024, out_features=1024, bias=True)
  (dropout): Dropout(p=0.1, inplace=False)
)
Linear(in_features=1024, out_features=1024, bias=True)
Linear(in_features=1024, out_features=1024, bias=True)
Linear(in_features=1024, out_features=1024, bias=True)
Dropout(p=0.1, inplace=False)
BertSelfOutput(
  (dense): Linear(in_features=1024, out_features=1024, bias=True)
  (LayerNorm): LayerNorm((1024,), eps=1e-12, elementwise_affine=True)
  (dropout): Dropout(p=0.1, inplace=False)
)
Linear(in_features=1024, out_features=1024, bias=True)
LayerNorm((1024,), eps=1e-12, elementwise_affine=True)
Dropout(p=0.1, inplace=False)
BertIntermediate(
  (dense): Linear(in_features=1024, out_features=4096, bias=True)
  (intermediate_act_fn): GELUActivation()
)
Linear(in_features=1024, out_features=4096, bias=True)
GELUActivation()
BertOutput(
  (dense): Linear(in_features=4096, out_features=1024, bias=True)
  (LayerNorm): LayerNorm((1024,), eps=1e-12, elementwise_affine=True)
  (dropout): Dropout(p=0.1, inplace=False)
)
Linear(in_features=4096, out_features=1024, bias=True)
LayerNorm((1024,), eps=1e-12, elementwise_affine=True)
Dropout(p=0.1, inplace=False)
BertLayer(
  (attention): BertAttention(
    (self): BertSelfAttention(
      (query): Linear(in_features=1024, out_features=1024, bias=True)
      (key): Linear(in_features=1024, out_features=1024, bias=True)
      (value): Linear(in_features=1024, out_features=1024, bias=True)
      (dropout): Dropout(p=0.1, inplace=False)
    )
    (output): BertSelfOutput(
      (dense): Linear(in_features=1024, out_features=1024, bias=True)
      (LayerNorm): LayerNorm((1024,), eps=1e-12, elementwise_affine=True)
      (dropout): Dropout(p=0.1, inplace=False)
    )
  )
  (intermediate): BertIntermediate(
    (dense): Linear(in_features=1024, out_features=4096, bias=True)
    (intermediate_act_fn): GELUActivation()
  )
  (output): BertOutput(
    (dense): Linear(in_features=4096, out_features=1024, bias=True)
    (LayerNorm): LayerNorm((1024,), eps=1e-12, elementwise_affine=True)
    (dropout): Dropout(p=0.1, inplace=False)
  )
)
BertAttention(
  (self): BertSelfAttention(
    (query): Linear(in_features=1024, out_features=1024, bias=True)
    (key): Linear(in_features=1024, out_features=1024, bias=True)
    (value): Linear(in_features=1024, out_features=1024, bias=True)
    (dropout): Dropout(p=0.1, inplace=False)
  )
  (output): BertSelfOutput(
    (dense): Linear(in_features=1024, out_features=1024, bias=True)
    (LayerNorm): LayerNorm((1024,), eps=1e-12, elementwise_affine=True)
    (dropout): Dropout(p=0.1, inplace=False)
  )
)
BertSelfAttention(
  (query): Linear(in_features=1024, out_features=1024, bias=True)
  (key): Linear(in_features=1024, out_features=1024, bias=True)
  (value): Linear(in_features=1024, out_features=1024, bias=True)
  (dropout): Dropout(p=0.1, inplace=False)
)
Linear(in_features=1024, out_features=1024, bias=True)
Linear(in_features=1024, out_features=1024, bias=True)
Linear(in_features=1024, out_features=1024, bias=True)
Dropout(p=0.1, inplace=False)
BertSelfOutput(
  (dense): Linear(in_features=1024, out_features=1024, bias=True)
  (LayerNorm): LayerNorm((1024,), eps=1e-12, elementwise_affine=True)
  (dropout): Dropout(p=0.1, inplace=False)
)
Linear(in_features=1024, out_features=1024, bias=True)
LayerNorm((1024,), eps=1e-12, elementwise_affine=True)
Dropout(p=0.1, inplace=False)
BertIntermediate(
  (dense): Linear(in_features=1024, out_features=4096, bias=True)
  (intermediate_act_fn): GELUActivation()
)
Linear(in_features=1024, out_features=4096, bias=True)
GELUActivation()
BertOutput(
  (dense): Linear(in_features=4096, out_features=1024, bias=True)
  (LayerNorm): LayerNorm((1024,), eps=1e-12, elementwise_affine=True)
  (dropout): Dropout(p=0.1, inplace=False)
)
Linear(in_features=4096, out_features=1024, bias=True)
LayerNorm((1024,), eps=1e-12, elementwise_affine=True)
Dropout(p=0.1, inplace=False)
BertLayer(
  (attention): BertAttention(
    (self): BertSelfAttention(
      (query): Linear(in_features=1024, out_features=1024, bias=True)
      (key): Linear(in_features=1024, out_features=1024, bias=True)
      (value): Linear(in_features=1024, out_features=1024, bias=True)
      (dropout): Dropout(p=0.1, inplace=False)
    )
    (output): BertSelfOutput(
      (dense): Linear(in_features=1024, out_features=1024, bias=True)
      (LayerNorm): LayerNorm((1024,), eps=1e-12, elementwise_affine=True)
      (dropout): Dropout(p=0.1, inplace=False)
    )
  )
  (intermediate): BertIntermediate(
    (dense): Linear(in_features=1024, out_features=4096, bias=True)
    (intermediate_act_fn): GELUActivation()
  )
  (output): BertOutput(
    (dense): Linear(in_features=4096, out_features=1024, bias=True)
    (LayerNorm): LayerNorm((1024,), eps=1e-12, elementwise_affine=True)
    (dropout): Dropout(p=0.1, inplace=False)
  )
)
BertAttention(
  (self): BertSelfAttention(
    (query): Linear(in_features=1024, out_features=1024, bias=True)
    (key): Linear(in_features=1024, out_features=1024, bias=True)
    (value): Linear(in_features=1024, out_features=1024, bias=True)
    (dropout): Dropout(p=0.1, inplace=False)
  )
  (output): BertSelfOutput(
    (dense): Linear(in_features=1024, out_features=1024, bias=True)
    (LayerNorm): LayerNorm((1024,), eps=1e-12, elementwise_affine=True)
    (dropout): Dropout(p=0.1, inplace=False)
  )
)
BertSelfAttention(
  (query): Linear(in_features=1024, out_features=1024, bias=True)
  (key): Linear(in_features=1024, out_features=1024, bias=True)
  (value): Linear(in_features=1024, out_features=1024, bias=True)
  (dropout): Dropout(p=0.1, inplace=False)
)
Linear(in_features=1024, out_features=1024, bias=True)
Linear(in_features=1024, out_features=1024, bias=True)
Linear(in_features=1024, out_features=1024, bias=True)
Dropout(p=0.1, inplace=False)
BertSelfOutput(
  (dense): Linear(in_features=1024, out_features=1024, bias=True)
  (LayerNorm): LayerNorm((1024,), eps=1e-12, elementwise_affine=True)
  (dropout): Dropout(p=0.1, inplace=False)
)
Linear(in_features=1024, out_features=1024, bias=True)
LayerNorm((1024,), eps=1e-12, elementwise_affine=True)
Dropout(p=0.1, inplace=False)
BertIntermediate(
  (dense): Linear(in_features=1024, out_features=4096, bias=True)
  (intermediate_act_fn): GELUActivation()
)
Linear(in_features=1024, out_features=4096, bias=True)
GELUActivation()
BertOutput(
  (dense): Linear(in_features=4096, out_features=1024, bias=True)
  (LayerNorm): LayerNorm((1024,), eps=1e-12, elementwise_affine=True)
  (dropout): Dropout(p=0.1, inplace=False)
)
Linear(in_features=4096, out_features=1024, bias=True)
LayerNorm((1024,), eps=1e-12, elementwise_affine=True)
Dropout(p=0.1, inplace=False)
BertLayer(
  (attention): BertAttention(
    (self): BertSelfAttention(
      (query): Linear(in_features=1024, out_features=1024, bias=True)
      (key): Linear(in_features=1024, out_features=1024, bias=True)
      (value): Linear(in_features=1024, out_features=1024, bias=True)
      (dropout): Dropout(p=0.1, inplace=False)
    )
    (output): BertSelfOutput(
      (dense): Linear(in_features=1024, out_features=1024, bias=True)
      (LayerNorm): LayerNorm((1024,), eps=1e-12, elementwise_affine=True)
      (dropout): Dropout(p=0.1, inplace=False)
    )
  )
  (intermediate): BertIntermediate(
    (dense): Linear(in_features=1024, out_features=4096, bias=True)
    (intermediate_act_fn): GELUActivation()
  )
  (output): BertOutput(
    (dense): Linear(in_features=4096, out_features=1024, bias=True)
    (LayerNorm): LayerNorm((1024,), eps=1e-12, elementwise_affine=True)
    (dropout): Dropout(p=0.1, inplace=False)
  )
)
BertAttention(
  (self): BertSelfAttention(
    (query): Linear(in_features=1024, out_features=1024, bias=True)
    (key): Linear(in_features=1024, out_features=1024, bias=True)
    (value): Linear(in_features=1024, out_features=1024, bias=True)
    (dropout): Dropout(p=0.1, inplace=False)
  )
  (output): BertSelfOutput(
    (dense): Linear(in_features=1024, out_features=1024, bias=True)
    (LayerNorm): LayerNorm((1024,), eps=1e-12, elementwise_affine=True)
    (dropout): Dropout(p=0.1, inplace=False)
  )
)
BertSelfAttention(
  (query): Linear(in_features=1024, out_features=1024, bias=True)
  (key): Linear(in_features=1024, out_features=1024, bias=True)
  (value): Linear(in_features=1024, out_features=1024, bias=True)
  (dropout): Dropout(p=0.1, inplace=False)
)
Linear(in_features=1024, out_features=1024, bias=True)
Linear(in_features=1024, out_features=1024, bias=True)
Linear(in_features=1024, out_features=1024, bias=True)
Dropout(p=0.1, inplace=False)
BertSelfOutput(
  (dense): Linear(in_features=1024, out_features=1024, bias=True)
  (LayerNorm): LayerNorm((1024,), eps=1e-12, elementwise_affine=True)
  (dropout): Dropout(p=0.1, inplace=False)
)
Linear(in_features=1024, out_features=1024, bias=True)
LayerNorm((1024,), eps=1e-12, elementwise_affine=True)
Dropout(p=0.1, inplace=False)
BertIntermediate(
  (dense): Linear(in_features=1024, out_features=4096, bias=True)
  (intermediate_act_fn): GELUActivation()
)
Linear(in_features=1024, out_features=4096, bias=True)
GELUActivation()
BertOutput(
  (dense): Linear(in_features=4096, out_features=1024, bias=True)
  (LayerNorm): LayerNorm((1024,), eps=1e-12, elementwise_affine=True)
  (dropout): Dropout(p=0.1, inplace=False)
)
Linear(in_features=4096, out_features=1024, bias=True)
LayerNorm((1024,), eps=1e-12, elementwise_affine=True)
Dropout(p=0.1, inplace=False)
BertLayer(
  (attention): BertAttention(
    (self): BertSelfAttention(
      (query): Linear(in_features=1024, out_features=1024, bias=True)
      (key): Linear(in_features=1024, out_features=1024, bias=True)
      (value): Linear(in_features=1024, out_features=1024, bias=True)
      (dropout): Dropout(p=0.1, inplace=False)
    )
    (output): BertSelfOutput(
      (dense): Linear(in_features=1024, out_features=1024, bias=True)
      (LayerNorm): LayerNorm((1024,), eps=1e-12, elementwise_affine=True)
      (dropout): Dropout(p=0.1, inplace=False)
    )
  )
  (intermediate): BertIntermediate(
    (dense): Linear(in_features=1024, out_features=4096, bias=True)
    (intermediate_act_fn): GELUActivation()
  )
  (output): BertOutput(
    (dense): Linear(in_features=4096, out_features=1024, bias=True)
    (LayerNorm): LayerNorm((1024,), eps=1e-12, elementwise_affine=True)
    (dropout): Dropout(p=0.1, inplace=False)
  )
)
BertAttention(
  (self): BertSelfAttention(
    (query): Linear(in_features=1024, out_features=1024, bias=True)
    (key): Linear(in_features=1024, out_features=1024, bias=True)
    (value): Linear(in_features=1024, out_features=1024, bias=True)
    (dropout): Dropout(p=0.1, inplace=False)
  )
  (output): BertSelfOutput(
    (dense): Linear(in_features=1024, out_features=1024, bias=True)
    (LayerNorm): LayerNorm((1024,), eps=1e-12, elementwise_affine=True)
    (dropout): Dropout(p=0.1, inplace=False)
  )
)
BertSelfAttention(
  (query): Linear(in_features=1024, out_features=1024, bias=True)
  (key): Linear(in_features=1024, out_features=1024, bias=True)
  (value): Linear(in_features=1024, out_features=1024, bias=True)
  (dropout): Dropout(p=0.1, inplace=False)
)
Linear(in_features=1024, out_features=1024, bias=True)
Linear(in_features=1024, out_features=1024, bias=True)
Linear(in_features=1024, out_features=1024, bias=True)
Dropout(p=0.1, inplace=False)
BertSelfOutput(
  (dense): Linear(in_features=1024, out_features=1024, bias=True)
  (LayerNorm): LayerNorm((1024,), eps=1e-12, elementwise_affine=True)
  (dropout): Dropout(p=0.1, inplace=False)
)
Linear(in_features=1024, out_features=1024, bias=True)
LayerNorm((1024,), eps=1e-12, elementwise_affine=True)
Dropout(p=0.1, inplace=False)
BertIntermediate(
  (dense): Linear(in_features=1024, out_features=4096, bias=True)
  (intermediate_act_fn): GELUActivation()
)
Linear(in_features=1024, out_features=4096, bias=True)
GELUActivation()
BertOutput(
  (dense): Linear(in_features=4096, out_features=1024, bias=True)
  (LayerNorm): LayerNorm((1024,), eps=1e-12, elementwise_affine=True)
  (dropout): Dropout(p=0.1, inplace=False)
)
Linear(in_features=4096, out_features=1024, bias=True)
LayerNorm((1024,), eps=1e-12, elementwise_affine=True)
Dropout(p=0.1, inplace=False)
BertLayer(
  (attention): BertAttention(
    (self): BertSelfAttention(
      (query): Linear(in_features=1024, out_features=1024, bias=True)
      (key): Linear(in_features=1024, out_features=1024, bias=True)
      (value): Linear(in_features=1024, out_features=1024, bias=True)
      (dropout): Dropout(p=0.1, inplace=False)
    )
    (output): BertSelfOutput(
      (dense): Linear(in_features=1024, out_features=1024, bias=True)
      (LayerNorm): LayerNorm((1024,), eps=1e-12, elementwise_affine=True)
      (dropout): Dropout(p=0.1, inplace=False)
    )
  )
  (intermediate): BertIntermediate(
    (dense): Linear(in_features=1024, out_features=4096, bias=True)
    (intermediate_act_fn): GELUActivation()
  )
  (output): BertOutput(
    (dense): Linear(in_features=4096, out_features=1024, bias=True)
    (LayerNorm): LayerNorm((1024,), eps=1e-12, elementwise_affine=True)
    (dropout): Dropout(p=0.1, inplace=False)
  )
)
BertAttention(
  (self): BertSelfAttention(
    (query): Linear(in_features=1024, out_features=1024, bias=True)
    (key): Linear(in_features=1024, out_features=1024, bias=True)
    (value): Linear(in_features=1024, out_features=1024, bias=True)
    (dropout): Dropout(p=0.1, inplace=False)
  )
  (output): BertSelfOutput(
    (dense): Linear(in_features=1024, out_features=1024, bias=True)
    (LayerNorm): LayerNorm((1024,), eps=1e-12, elementwise_affine=True)
    (dropout): Dropout(p=0.1, inplace=False)
  )
)
BertSelfAttention(
  (query): Linear(in_features=1024, out_features=1024, bias=True)
  (key): Linear(in_features=1024, out_features=1024, bias=True)
  (value): Linear(in_features=1024, out_features=1024, bias=True)
  (dropout): Dropout(p=0.1, inplace=False)
)
Linear(in_features=1024, out_features=1024, bias=True)
Linear(in_features=1024, out_features=1024, bias=True)
Linear(in_features=1024, out_features=1024, bias=True)
Dropout(p=0.1, inplace=False)
BertSelfOutput(
  (dense): Linear(in_features=1024, out_features=1024, bias=True)
  (LayerNorm): LayerNorm((1024,), eps=1e-12, elementwise_affine=True)
  (dropout): Dropout(p=0.1, inplace=False)
)
Linear(in_features=1024, out_features=1024, bias=True)
LayerNorm((1024,), eps=1e-12, elementwise_affine=True)
Dropout(p=0.1, inplace=False)
BertIntermediate(
  (dense): Linear(in_features=1024, out_features=4096, bias=True)
  (intermediate_act_fn): GELUActivation()
)
Linear(in_features=1024, out_features=4096, bias=True)
GELUActivation()
BertOutput(
  (dense): Linear(in_features=4096, out_features=1024, bias=True)
  (LayerNorm): LayerNorm((1024,), eps=1e-12, elementwise_affine=True)
  (dropout): Dropout(p=0.1, inplace=False)
)
Linear(in_features=4096, out_features=1024, bias=True)
LayerNorm((1024,), eps=1e-12, elementwise_affine=True)
Dropout(p=0.1, inplace=False)
BertLayer(
  (attention): BertAttention(
    (self): BertSelfAttention(
      (query): Linear(in_features=1024, out_features=1024, bias=True)
      (key): Linear(in_features=1024, out_features=1024, bias=True)
      (value): Linear(in_features=1024, out_features=1024, bias=True)
      (dropout): Dropout(p=0.1, inplace=False)
    )
    (output): BertSelfOutput(
      (dense): Linear(in_features=1024, out_features=1024, bias=True)
      (LayerNorm): LayerNorm((1024,), eps=1e-12, elementwise_affine=True)
      (dropout): Dropout(p=0.1, inplace=False)
    )
  )
  (intermediate): BertIntermediate(
    (dense): Linear(in_features=1024, out_features=4096, bias=True)
    (intermediate_act_fn): GELUActivation()
  )
  (output): BertOutput(
    (dense): Linear(in_features=4096, out_features=1024, bias=True)
    (LayerNorm): LayerNorm((1024,), eps=1e-12, elementwise_affine=True)
    (dropout): Dropout(p=0.1, inplace=False)
  )
)
BertAttention(
  (self): BertSelfAttention(
    (query): Linear(in_features=1024, out_features=1024, bias=True)
    (key): Linear(in_features=1024, out_features=1024, bias=True)
    (value): Linear(in_features=1024, out_features=1024, bias=True)
    (dropout): Dropout(p=0.1, inplace=False)
  )
  (output): BertSelfOutput(
    (dense): Linear(in_features=1024, out_features=1024, bias=True)
    (LayerNorm): LayerNorm((1024,), eps=1e-12, elementwise_affine=True)
    (dropout): Dropout(p=0.1, inplace=False)
  )
)
BertSelfAttention(
  (query): Linear(in_features=1024, out_features=1024, bias=True)
  (key): Linear(in_features=1024, out_features=1024, bias=True)
  (value): Linear(in_features=1024, out_features=1024, bias=True)
  (dropout): Dropout(p=0.1, inplace=False)
)
Linear(in_features=1024, out_features=1024, bias=True)
Linear(in_features=1024, out_features=1024, bias=True)
Linear(in_features=1024, out_features=1024, bias=True)
Dropout(p=0.1, inplace=False)
BertSelfOutput(
  (dense): Linear(in_features=1024, out_features=1024, bias=True)
  (LayerNorm): LayerNorm((1024,), eps=1e-12, elementwise_affine=True)
  (dropout): Dropout(p=0.1, inplace=False)
)
Linear(in_features=1024, out_features=1024, bias=True)
LayerNorm((1024,), eps=1e-12, elementwise_affine=True)
Dropout(p=0.1, inplace=False)
BertIntermediate(
  (dense): Linear(in_features=1024, out_features=4096, bias=True)
  (intermediate_act_fn): GELUActivation()
)
Linear(in_features=1024, out_features=4096, bias=True)
GELUActivation()
BertOutput(
  (dense): Linear(in_features=4096, out_features=1024, bias=True)
  (LayerNorm): LayerNorm((1024,), eps=1e-12, elementwise_affine=True)
  (dropout): Dropout(p=0.1, inplace=False)
)
Linear(in_features=4096, out_features=1024, bias=True)
LayerNorm((1024,), eps=1e-12, elementwise_affine=True)
Dropout(p=0.1, inplace=False)
BertLayer(
  (attention): BertAttention(
    (self): BertSelfAttention(
      (query): Linear(in_features=1024, out_features=1024, bias=True)
      (key): Linear(in_features=1024, out_features=1024, bias=True)
      (value): Linear(in_features=1024, out_features=1024, bias=True)
      (dropout): Dropout(p=0.1, inplace=False)
    )
    (output): BertSelfOutput(
      (dense): Linear(in_features=1024, out_features=1024, bias=True)
      (LayerNorm): LayerNorm((1024,), eps=1e-12, elementwise_affine=True)
      (dropout): Dropout(p=0.1, inplace=False)
    )
  )
  (intermediate): BertIntermediate(
    (dense): Linear(in_features=1024, out_features=4096, bias=True)
    (intermediate_act_fn): GELUActivation()
  )
  (output): BertOutput(
    (dense): Linear(in_features=4096, out_features=1024, bias=True)
    (LayerNorm): LayerNorm((1024,), eps=1e-12, elementwise_affine=True)
    (dropout): Dropout(p=0.1, inplace=False)
  )
)
BertAttention(
  (self): BertSelfAttention(
    (query): Linear(in_features=1024, out_features=1024, bias=True)
    (key): Linear(in_features=1024, out_features=1024, bias=True)
    (value): Linear(in_features=1024, out_features=1024, bias=True)
    (dropout): Dropout(p=0.1, inplace=False)
  )
  (output): BertSelfOutput(
    (dense): Linear(in_features=1024, out_features=1024, bias=True)
    (LayerNorm): LayerNorm((1024,), eps=1e-12, elementwise_affine=True)
    (dropout): Dropout(p=0.1, inplace=False)
  )
)
BertSelfAttention(
  (query): Linear(in_features=1024, out_features=1024, bias=True)
  (key): Linear(in_features=1024, out_features=1024, bias=True)
  (value): Linear(in_features=1024, out_features=1024, bias=True)
  (dropout): Dropout(p=0.1, inplace=False)
)
Linear(in_features=1024, out_features=1024, bias=True)
Linear(in_features=1024, out_features=1024, bias=True)
Linear(in_features=1024, out_features=1024, bias=True)
Dropout(p=0.1, inplace=False)
BertSelfOutput(
  (dense): Linear(in_features=1024, out_features=1024, bias=True)
  (LayerNorm): LayerNorm((1024,), eps=1e-12, elementwise_affine=True)
  (dropout): Dropout(p=0.1, inplace=False)
)
Linear(in_features=1024, out_features=1024, bias=True)
LayerNorm((1024,), eps=1e-12, elementwise_affine=True)
Dropout(p=0.1, inplace=False)
BertIntermediate(
  (dense): Linear(in_features=1024, out_features=4096, bias=True)
  (intermediate_act_fn): GELUActivation()
)
Linear(in_features=1024, out_features=4096, bias=True)
GELUActivation()
BertOutput(
  (dense): Linear(in_features=4096, out_features=1024, bias=True)
  (LayerNorm): LayerNorm((1024,), eps=1e-12, elementwise_affine=True)
  (dropout): Dropout(p=0.1, inplace=False)
)
Linear(in_features=4096, out_features=1024, bias=True)
LayerNorm((1024,), eps=1e-12, elementwise_affine=True)
Dropout(p=0.1, inplace=False)
BertLayer(
  (attention): BertAttention(
    (self): BertSelfAttention(
      (query): Linear(in_features=1024, out_features=1024, bias=True)
      (key): Linear(in_features=1024, out_features=1024, bias=True)
      (value): Linear(in_features=1024, out_features=1024, bias=True)
      (dropout): Dropout(p=0.1, inplace=False)
    )
    (output): BertSelfOutput(
      (dense): Linear(in_features=1024, out_features=1024, bias=True)
      (LayerNorm): LayerNorm((1024,), eps=1e-12, elementwise_affine=True)
      (dropout): Dropout(p=0.1, inplace=False)
    )
  )
  (intermediate): BertIntermediate(
    (dense): Linear(in_features=1024, out_features=4096, bias=True)
    (intermediate_act_fn): GELUActivation()
  )
  (output): BertOutput(
    (dense): Linear(in_features=4096, out_features=1024, bias=True)
    (LayerNorm): LayerNorm((1024,), eps=1e-12, elementwise_affine=True)
    (dropout): Dropout(p=0.1, inplace=False)
  )
)
BertAttention(
  (self): BertSelfAttention(
    (query): Linear(in_features=1024, out_features=1024, bias=True)
    (key): Linear(in_features=1024, out_features=1024, bias=True)
    (value): Linear(in_features=1024, out_features=1024, bias=True)
    (dropout): Dropout(p=0.1, inplace=False)
  )
  (output): BertSelfOutput(
    (dense): Linear(in_features=1024, out_features=1024, bias=True)
    (LayerNorm): LayerNorm((1024,), eps=1e-12, elementwise_affine=True)
    (dropout): Dropout(p=0.1, inplace=False)
  )
)
BertSelfAttention(
  (query): Linear(in_features=1024, out_features=1024, bias=True)
  (key): Linear(in_features=1024, out_features=1024, bias=True)
  (value): Linear(in_features=1024, out_features=1024, bias=True)
  (dropout): Dropout(p=0.1, inplace=False)
)
Linear(in_features=1024, out_features=1024, bias=True)
Linear(in_features=1024, out_features=1024, bias=True)
Linear(in_features=1024, out_features=1024, bias=True)
Dropout(p=0.1, inplace=False)
BertSelfOutput(
  (dense): Linear(in_features=1024, out_features=1024, bias=True)
  (LayerNorm): LayerNorm((1024,), eps=1e-12, elementwise_affine=True)
  (dropout): Dropout(p=0.1, inplace=False)
)
Linear(in_features=1024, out_features=1024, bias=True)
LayerNorm((1024,), eps=1e-12, elementwise_affine=True)
Dropout(p=0.1, inplace=False)
BertIntermediate(
  (dense): Linear(in_features=1024, out_features=4096, bias=True)
  (intermediate_act_fn): GELUActivation()
)
Linear(in_features=1024, out_features=4096, bias=True)
GELUActivation()
BertOutput(
  (dense): Linear(in_features=4096, out_features=1024, bias=True)
  (LayerNorm): LayerNorm((1024,), eps=1e-12, elementwise_affine=True)
  (dropout): Dropout(p=0.1, inplace=False)
)
Linear(in_features=4096, out_features=1024, bias=True)
LayerNorm((1024,), eps=1e-12, elementwise_affine=True)
Dropout(p=0.1, inplace=False)
BertLayer(
  (attention): BertAttention(
    (self): BertSelfAttention(
      (query): Linear(in_features=1024, out_features=1024, bias=True)
      (key): Linear(in_features=1024, out_features=1024, bias=True)
      (value): Linear(in_features=1024, out_features=1024, bias=True)
      (dropout): Dropout(p=0.1, inplace=False)
    )
    (output): BertSelfOutput(
      (dense): Linear(in_features=1024, out_features=1024, bias=True)
      (LayerNorm): LayerNorm((1024,), eps=1e-12, elementwise_affine=True)
      (dropout): Dropout(p=0.1, inplace=False)
    )
  )
  (intermediate): BertIntermediate(
    (dense): Linear(in_features=1024, out_features=4096, bias=True)
    (intermediate_act_fn): GELUActivation()
  )
  (output): BertOutput(
    (dense): Linear(in_features=4096, out_features=1024, bias=True)
    (LayerNorm): LayerNorm((1024,), eps=1e-12, elementwise_affine=True)
    (dropout): Dropout(p=0.1, inplace=False)
  )
)
BertAttention(
  (self): BertSelfAttention(
    (query): Linear(in_features=1024, out_features=1024, bias=True)
    (key): Linear(in_features=1024, out_features=1024, bias=True)
    (value): Linear(in_features=1024, out_features=1024, bias=True)
    (dropout): Dropout(p=0.1, inplace=False)
  )
  (output): BertSelfOutput(
    (dense): Linear(in_features=1024, out_features=1024, bias=True)
    (LayerNorm): LayerNorm((1024,), eps=1e-12, elementwise_affine=True)
    (dropout): Dropout(p=0.1, inplace=False)
  )
)
BertSelfAttention(
  (query): Linear(in_features=1024, out_features=1024, bias=True)
  (key): Linear(in_features=1024, out_features=1024, bias=True)
  (value): Linear(in_features=1024, out_features=1024, bias=True)
  (dropout): Dropout(p=0.1, inplace=False)
)
Linear(in_features=1024, out_features=1024, bias=True)
Linear(in_features=1024, out_features=1024, bias=True)
Linear(in_features=1024, out_features=1024, bias=True)
Dropout(p=0.1, inplace=False)
BertSelfOutput(
  (dense): Linear(in_features=1024, out_features=1024, bias=True)
  (LayerNorm): LayerNorm((1024,), eps=1e-12, elementwise_affine=True)
  (dropout): Dropout(p=0.1, inplace=False)
)
Linear(in_features=1024, out_features=1024, bias=True)
LayerNorm((1024,), eps=1e-12, elementwise_affine=True)
Dropout(p=0.1, inplace=False)
BertIntermediate(
  (dense): Linear(in_features=1024, out_features=4096, bias=True)
  (intermediate_act_fn): GELUActivation()
)
Linear(in_features=1024, out_features=4096, bias=True)
GELUActivation()
BertOutput(
  (dense): Linear(in_features=4096, out_features=1024, bias=True)
  (LayerNorm): LayerNorm((1024,), eps=1e-12, elementwise_affine=True)
  (dropout): Dropout(p=0.1, inplace=False)
)
Linear(in_features=4096, out_features=1024, bias=True)
LayerNorm((1024,), eps=1e-12, elementwise_affine=True)
Dropout(p=0.1, inplace=False)
BertLayer(
  (attention): BertAttention(
    (self): BertSelfAttention(
      (query): Linear(in_features=1024, out_features=1024, bias=True)
      (key): Linear(in_features=1024, out_features=1024, bias=True)
      (value): Linear(in_features=1024, out_features=1024, bias=True)
      (dropout): Dropout(p=0.1, inplace=False)
    )
    (output): BertSelfOutput(
      (dense): Linear(in_features=1024, out_features=1024, bias=True)
      (LayerNorm): LayerNorm((1024,), eps=1e-12, elementwise_affine=True)
      (dropout): Dropout(p=0.1, inplace=False)
    )
  )
  (intermediate): BertIntermediate(
    (dense): Linear(in_features=1024, out_features=4096, bias=True)
    (intermediate_act_fn): GELUActivation()
  )
  (output): BertOutput(
    (dense): Linear(in_features=4096, out_features=1024, bias=True)
    (LayerNorm): LayerNorm((1024,), eps=1e-12, elementwise_affine=True)
    (dropout): Dropout(p=0.1, inplace=False)
  )
)
BertAttention(
  (self): BertSelfAttention(
    (query): Linear(in_features=1024, out_features=1024, bias=True)
    (key): Linear(in_features=1024, out_features=1024, bias=True)
    (value): Linear(in_features=1024, out_features=1024, bias=True)
    (dropout): Dropout(p=0.1, inplace=False)
  )
  (output): BertSelfOutput(
    (dense): Linear(in_features=1024, out_features=1024, bias=True)
    (LayerNorm): LayerNorm((1024,), eps=1e-12, elementwise_affine=True)
    (dropout): Dropout(p=0.1, inplace=False)
  )
)
BertSelfAttention(
  (query): Linear(in_features=1024, out_features=1024, bias=True)
  (key): Linear(in_features=1024, out_features=1024, bias=True)
  (value): Linear(in_features=1024, out_features=1024, bias=True)
  (dropout): Dropout(p=0.1, inplace=False)
)
Linear(in_features=1024, out_features=1024, bias=True)
Linear(in_features=1024, out_features=1024, bias=True)
Linear(in_features=1024, out_features=1024, bias=True)
Dropout(p=0.1, inplace=False)
BertSelfOutput(
  (dense): Linear(in_features=1024, out_features=1024, bias=True)
  (LayerNorm): LayerNorm((1024,), eps=1e-12, elementwise_affine=True)
  (dropout): Dropout(p=0.1, inplace=False)
)
Linear(in_features=1024, out_features=1024, bias=True)
LayerNorm((1024,), eps=1e-12, elementwise_affine=True)
Dropout(p=0.1, inplace=False)
BertIntermediate(
  (dense): Linear(in_features=1024, out_features=4096, bias=True)
  (intermediate_act_fn): GELUActivation()
)
Linear(in_features=1024, out_features=4096, bias=True)
GELUActivation()
BertOutput(
  (dense): Linear(in_features=4096, out_features=1024, bias=True)
  (LayerNorm): LayerNorm((1024,), eps=1e-12, elementwise_affine=True)
  (dropout): Dropout(p=0.1, inplace=False)
)
Linear(in_features=4096, out_features=1024, bias=True)
LayerNorm((1024,), eps=1e-12, elementwise_affine=True)
Dropout(p=0.1, inplace=False)
BertLayer(
  (attention): BertAttention(
    (self): BertSelfAttention(
      (query): Linear(in_features=1024, out_features=1024, bias=True)
      (key): Linear(in_features=1024, out_features=1024, bias=True)
      (value): Linear(in_features=1024, out_features=1024, bias=True)
      (dropout): Dropout(p=0.1, inplace=False)
    )
    (output): BertSelfOutput(
      (dense): Linear(in_features=1024, out_features=1024, bias=True)
      (LayerNorm): LayerNorm((1024,), eps=1e-12, elementwise_affine=True)
      (dropout): Dropout(p=0.1, inplace=False)
    )
  )
  (intermediate): BertIntermediate(
    (dense): Linear(in_features=1024, out_features=4096, bias=True)
    (intermediate_act_fn): GELUActivation()
  )
  (output): BertOutput(
    (dense): Linear(in_features=4096, out_features=1024, bias=True)
    (LayerNorm): LayerNorm((1024,), eps=1e-12, elementwise_affine=True)
    (dropout): Dropout(p=0.1, inplace=False)
  )
)
BertAttention(
  (self): BertSelfAttention(
    (query): Linear(in_features=1024, out_features=1024, bias=True)
    (key): Linear(in_features=1024, out_features=1024, bias=True)
    (value): Linear(in_features=1024, out_features=1024, bias=True)
    (dropout): Dropout(p=0.1, inplace=False)
  )
  (output): BertSelfOutput(
    (dense): Linear(in_features=1024, out_features=1024, bias=True)
    (LayerNorm): LayerNorm((1024,), eps=1e-12, elementwise_affine=True)
    (dropout): Dropout(p=0.1, inplace=False)
  )
)
BertSelfAttention(
  (query): Linear(in_features=1024, out_features=1024, bias=True)
  (key): Linear(in_features=1024, out_features=1024, bias=True)
  (value): Linear(in_features=1024, out_features=1024, bias=True)
  (dropout): Dropout(p=0.1, inplace=False)
)
Linear(in_features=1024, out_features=1024, bias=True)
Linear(in_features=1024, out_features=1024, bias=True)
Linear(in_features=1024, out_features=1024, bias=True)
Dropout(p=0.1, inplace=False)
BertSelfOutput(
  (dense): Linear(in_features=1024, out_features=1024, bias=True)
  (LayerNorm): LayerNorm((1024,), eps=1e-12, elementwise_affine=True)
  (dropout): Dropout(p=0.1, inplace=False)
)
Linear(in_features=1024, out_features=1024, bias=True)
LayerNorm((1024,), eps=1e-12, elementwise_affine=True)
Dropout(p=0.1, inplace=False)
BertIntermediate(
  (dense): Linear(in_features=1024, out_features=4096, bias=True)
  (intermediate_act_fn): GELUActivation()
)
Linear(in_features=1024, out_features=4096, bias=True)
GELUActivation()
BertOutput(
  (dense): Linear(in_features=4096, out_features=1024, bias=True)
  (LayerNorm): LayerNorm((1024,), eps=1e-12, elementwise_affine=True)
  (dropout): Dropout(p=0.1, inplace=False)
)
Linear(in_features=4096, out_features=1024, bias=True)
LayerNorm((1024,), eps=1e-12, elementwise_affine=True)
Dropout(p=0.1, inplace=False)
BertLayer(
  (attention): BertAttention(
    (self): BertSelfAttention(
      (query): Linear(in_features=1024, out_features=1024, bias=True)
      (key): Linear(in_features=1024, out_features=1024, bias=True)
      (value): Linear(in_features=1024, out_features=1024, bias=True)
      (dropout): Dropout(p=0.1, inplace=False)
    )
    (output): BertSelfOutput(
      (dense): Linear(in_features=1024, out_features=1024, bias=True)
      (LayerNorm): LayerNorm((1024,), eps=1e-12, elementwise_affine=True)
      (dropout): Dropout(p=0.1, inplace=False)
    )
  )
  (intermediate): BertIntermediate(
    (dense): Linear(in_features=1024, out_features=4096, bias=True)
    (intermediate_act_fn): GELUActivation()
  )
  (output): BertOutput(
    (dense): Linear(in_features=4096, out_features=1024, bias=True)
    (LayerNorm): LayerNorm((1024,), eps=1e-12, elementwise_affine=True)
    (dropout): Dropout(p=0.1, inplace=False)
  )
)
BertAttention(
  (self): BertSelfAttention(
    (query): Linear(in_features=1024, out_features=1024, bias=True)
    (key): Linear(in_features=1024, out_features=1024, bias=True)
    (value): Linear(in_features=1024, out_features=1024, bias=True)
    (dropout): Dropout(p=0.1, inplace=False)
  )
  (output): BertSelfOutput(
    (dense): Linear(in_features=1024, out_features=1024, bias=True)
    (LayerNorm): LayerNorm((1024,), eps=1e-12, elementwise_affine=True)
    (dropout): Dropout(p=0.1, inplace=False)
  )
)
BertSelfAttention(
  (query): Linear(in_features=1024, out_features=1024, bias=True)
  (key): Linear(in_features=1024, out_features=1024, bias=True)
  (value): Linear(in_features=1024, out_features=1024, bias=True)
  (dropout): Dropout(p=0.1, inplace=False)
)
Linear(in_features=1024, out_features=1024, bias=True)
Linear(in_features=1024, out_features=1024, bias=True)
Linear(in_features=1024, out_features=1024, bias=True)
Dropout(p=0.1, inplace=False)
BertSelfOutput(
  (dense): Linear(in_features=1024, out_features=1024, bias=True)
  (LayerNorm): LayerNorm((1024,), eps=1e-12, elementwise_affine=True)
  (dropout): Dropout(p=0.1, inplace=False)
)
Linear(in_features=1024, out_features=1024, bias=True)
LayerNorm((1024,), eps=1e-12, elementwise_affine=True)
Dropout(p=0.1, inplace=False)
BertIntermediate(
  (dense): Linear(in_features=1024, out_features=4096, bias=True)
  (intermediate_act_fn): GELUActivation()
)
Linear(in_features=1024, out_features=4096, bias=True)
GELUActivation()
BertOutput(
  (dense): Linear(in_features=4096, out_features=1024, bias=True)
  (LayerNorm): LayerNorm((1024,), eps=1e-12, elementwise_affine=True)
  (dropout): Dropout(p=0.1, inplace=False)
)
Linear(in_features=4096, out_features=1024, bias=True)
LayerNorm((1024,), eps=1e-12, elementwise_affine=True)
Dropout(p=0.1, inplace=False)
BertPooler(
  (dense): Linear(in_features=1024, out_features=1024, bias=True)
  (activation): Tanh()
)
Linear(in_features=1024, out_features=1024, bias=True)
Tanh()
Dropout(p=0.1, inplace=False)
Linear(in_features=1024, out_features=2, bias=True)
